results/ddqn_agent.pt (torch, 41382 bytes, 6 tensors)

net.0.weight f4 [128, 8]
000000 01 2a a4 bd df 0a e6 be 91 c1 e1 3f 01 6f 24 bf
       -0.08015824 -0.4493017 1.7637197 -0.6423188
000010 ad ee 71 3e 3f 2b 93 3d 69 dd ba be 69 62 16 bd
       0.23626204 0.07185983 -0.36497048 -0.036714945
000020 59 55 53 bf 26 d4 72 3e 0a eb 0a be 11 06 8d bb
       -0.82552105 0.2371374 -0.13566223 -0.0043037017
000030 39 be cc be 47 94 79 bd fc 09 8b bc ec b8 18 3f
       -0.39988878 -0.060932424 -0.016972534 0.5965717
000040 86 2a 8e 3f 9d 10 a6 be b2 1c bc 3e d1 da 21 be
       1.1106727 -0.3243455 0.36740643 -0.15806128
000050 81 a0 43 be 8b d4 a9 3e db 00 15 3f af 2d 2d 3d
       -0.19104196 0.3316997 0.5820443 0.042279895
000060 9e ef 96 be 2e c3 e1 bf 65 5e 15 3f f5 31 66 bf
       -0.29479688 -1.7637689 0.5834716 -0.8991998
000070 ae 07 b7 be 4e c7 99 be 10 a4 5a bd b6 c6 5b bc
       -0.35748047 -0.3003487 -0.05337912 -0.013414076
000080 f7 8a 15 3d 02 34 f6 3d 1a 2e 06 bf 8a b7 46 be
       0.03650948 0.120216385 -0.52414095 -0.19405952
000090 af 88 12 3e 21 76 33 3f 45 70 cb 3e 39 b2 92 3e
       0.14309953 0.70102125 0.39734092 0.28651598
0000a0 5e fe 04 bf 36 90 b9 3e 87 11 bf be 84 8e f5 be
       -0.51950634 0.36242837 -0.3731806 -0.47960293
0000b0 c2 36 2a bf df b8 0c 3f f3 44 82 bd d7 40 94 3e
       -0.66489804 0.5496959 -0.06360807 0.2895572
0000c0 1b e0 1f 3e 33 08 ed bf ce 95 d4 be cc e2 80 be
       0.15612833 -1.8518127 -0.41520542 -0.25173032
0000d0 0b 94 ff bc 96 9d 1b 3e f6 45 12 be a7 6c c3 bd
       -0.031198522 0.15196833 -0.142845 -0.09542208
0000e0 9a 7e 1c be 98 1b 12 be d6 c0 0c 40 29 ef c1 bf
       -0.1528267 -0.14268339 2.1992698 -1.5151111
0000f0 fa dd 10 bc 3e b6 26 bd b6 e6 f9 bc 95 43 58 3d
       -0.008841986 -0.040701143 -0.03050552 0.052798826
000100 0e ae 92 be e1 80 7b 3c f6 13 92 3e 66 6c 74 bf
       -0.28648418 0.015350551 0.28530854 -0.954779
000110 2f 9c ed bd 1b 37 ad bd 6e 05 2c be 71 7a 45 3e
       -0.11602055 -0.08457776 -0.16798946 0.19284989
000120 70 fb f4 3b bf 2c d5 bf 63 68 91 be 9b 2b ba be
       0.0074762627 -1.665428 -0.28399953 -0.36361393
000130 16 5b a0 3d e3 f4 c2 bd bf 2d 75 3e f9 c2 c0 3e
       0.07829873 -0.09519365 0.23943232 0.37648752
000140 d0 1c 12 3e 15 bb 85 bf 6e 01 80 3e 78 d3 05 bf
       0.14268804 -1.0447718 0.2500109 -0.522758
000150 84 a8 23 bf 0c 63 2b be a6 ba 84 3d aa 6b b3 3e
       -0.6392901 -0.16737002 0.06480913 0.3504308
000160 2f e8 41 be 3a 96 d1 3c 8b 13 3e 3f c7 cf 57 bf
       -0.18936227 0.025584329 0.7424857 -0.8430142
000170 4b b2 1e 40 97 03 9b bd 5e 57 6a 3e 37 f9 4e 3e
       2.4796321 -0.07569044 0.2288489 0.20212255
000180 95 32 19 3d 4e b6 82 3f 5c 5a ae bf 12 f1 b6 be
       0.037401754 1.0211885 -1.3621325 -0.35730797
000190 2d d7 71 3f 20 b7 9a 3c 91 4f 10 bd ff f9 84 3e
       0.9446896 0.018886149 -0.03523213 0.25971982
0001a0 86 b7 fd bb 18 74 3a 3f 93 c0 53 3f 2a 16 5e bf
       -0.007742825 0.72833395 0.8271572 -0.8675257
0001b0 ad 0d e8 3e 8e 82 73 be 63 1b 67 3d 5f d8 ea bd
       0.45322934 -0.23780271 0.056422602 -0.11467051
0001c0 19 f4 5c 3e f4 28 a0 be b1 c6 4b 3e d8 6c 1a be
       0.21577491 -0.31281245 0.19900014 -0.15080583
0001d0 85 dd 23 3d d1 55 e7 3e 94 02 45 3f 54 a0 d3 bd
       0.04000618 0.4518266 0.7695706 -0.103333145
0001e0 53 a5 e8 3e bb 66 e2 3e e6 96 b6 be 11 d7 65 be
       0.45438632 0.44219002 -0.35662 -0.22445323
0001f0 25 da 36 bc 07 d4 ab 3e 59 5e 18 3f 7c 95 4a 3e
       -0.011160408 0.33560202 0.59518963 0.19783586
000200 33 20 b6 be bb d6 41 3f 3a 9d 65 be f2 54 50 3f
       -0.3557144 0.7571828 -0.22423258 0.81379616
000210 d1 4a 89 3f d6 22 23 3f 4c 0e 53 3e b9 19 98 bf
       1.0725957 0.6372503 0.20610923 -1.188285
000220 af 42 8d bf 98 a7 e4 bf 6f 52 02 bf 69 6d 33 bf
       -1.1035975 -1.7863646 -0.50907034 -0.7008882
000230 50 60 97 be 1c 36 8c bc b0 b0 aa 3c a7 1c 2d 3e
       -0.29565668 -0.017115645 0.020836204 0.16905461
000240 4c 2c 62 3f be 5a 55 bf 3e 86 5d 3e 56 79 e6 be
       0.8834884 -0.83341587 0.2163324 -0.45014447
000250 1c 07 24 bf b9 5b b0 be 07 b1 04 bd fd d9 f5 3e
       -0.6407335 -0.3444498 -0.03239539 0.48017874
000260 fa ec e2 3e a6 c8 1a be 94 32 86 be 87 31 1e be
       0.44321424 -0.15115604 -0.26210463 -0.1544858
000270 c9 63 e7 3f 64 1a 33 bd c9 51 16 be ab 54 d6 bd
       1.8077327 -0.04372634 -0.14679636 -0.10465368
000280 c8 38 31 bf 32 93 af 3e 19 24 35 3d 93 f4 8c 3d
       -0.69227266 0.3429199 0.04422388 0.06882586
000290 9e 83 29 bd 06 d3 c5 bf a3 ef 49 3d b3 b2 87 3d
       -0.041385286 -1.5455024 0.0493008 0.06625881
0002a0 37 cd 84 bf 3a cc 25 be dd 12 8e be 4f 77 bc be
       -1.0375127 -0.16191188 -0.27748767 -0.36809775
0002b0 9a 43 d2 3d 55 34 c9 3d 5b e5 cd 3e ed 93 a4 ba
       0.102668 0.09824435 0.40214047 -0.0012556292
0002c0 a5 b9 85 3e 04 9c 8f be 59 27 0f 3f 65 a0 92 bd
       0.26118198 -0.28048718 0.55919415 -0.07159499
0002d0 ef 9c b4 bd ab 11 28 3f 42 55 18 3f 94 0d 44 3e
       -0.08818995 0.6565196 0.59505093 0.19145805
0002e0 fd 7a 05 3f 89 c9 17 3f cb 2f 00 3e 78 8e 79 be
       0.5214079 0.59291893 0.12518232 -0.24370754
0002f0 64 f6 f2 3d 6a d8 4b bf 30 d1 61 be be 9b 2a 3e
       0.118634015 -0.79627097 -0.22052455 0.16660973
000300 40 20 5a 3e f1 b5 b1 3d d1 c0 a6 bd 1d 1a 74 bf
       0.21301365 0.08677281 -0.081422456 -0.95352346
000310 26 fd 2e be 6d 1b 5f 3d 7f 70 1b 3c 96 9f 99 be
       -0.17088756 0.054469515 0.00948727 -0.30004567
000320 8a b5 d2 3e 36 76 22 c0 dd 52 11 be 4f ca fa be
       0.41154128 -2.538465 -0.14191766 -0.48982474
000330 40 0e 17 be 5f 1e 95 3e b6 22 59 bf d7 70 5b bd
       -0.1475153 0.29124734 -0.8481859 -0.05357441
000340 8d db 58 bc 79 e6 04 3f 46 6b df bf 08 dd 1d bf
       -0.013235939 0.51914173 -1.7454612 -0.6166539
000350 cc 7f 0e bf 02 b8 60 be e2 0d b1 3e 8a 0e 49 3e
       -0.5566375 -0.21945193 0.34580904 0.19634452
000360 e1 cd bb bd 6b c1 1e bd b5 27 0f be 16 f0 be be
       -0.09170128 -0.038758676 -0.13979991 -0.37292546
000370 d3 9c 80 3f 4b f7 30 3f 8c cc c1 be 00 3b 63 bf
       1.0047859 0.6912734 -0.3785137 -0.887619
000380 d8 5a 95 bf 15 f4 13 bf 2b 2a b5 be 39 4c 0d bf
       -1.1668348 -0.57794315 -0.35383734 -0.5519443
000390 5c ea 72 3d 0d d6 e5 3d 04 26 a6 3e 27 22 8c 3d
       0.059305534 0.112224676 0.3245088 0.068424515
0003a0 03 a2 e9 be e7 1b d9 3d b4 e0 5b 3d b8 ed 53 be
       -0.45631418 0.10601025 0.05368109 -0.20696151
0003b0 3b 06 3c c0 50 04 8e 3e 01 ae 1f be 31 3b db bc
       -2.9378803 0.27737665 -0.15593721 -0.026761623
0003c0 0c ff 00 3f 2e e0 4b 3e d5 e5 bd bd d7 b6 43 be
       0.5038917 0.19909737 -0.092723526 -0.19112717
0003d0 ff 07 1b bf 92 7e 0d bf 42 49 ee bd 74 30 89 3d
       -0.60559076 -0.55271256 -0.116350666 0.06698695
0003e0 ff 5f 2a bf a8 5d fe 3d 08 df 65 3e da 73 80 bd
       -0.6655273 0.12420207 0.22448361 -0.06272097
0003f0 59 d8 27 3f 4b 68 81 3f f5 0c b2 3e 53 eb a6 be
       0.65564495 1.0109953 0.3477551 -0.32601413

net.0.bias f4 [128]
000000 e1 4d 01 3e c8 f3 15 3d 31 b6 13 be 35 24 a0 3d
       0.12627365 0.03660944 -0.1442497 0.07819406
000010 dc 0c 81 3f 27 96 2f 3f 2c ef 8d 3f 45 4c a3 3c
       1.0082049 0.6858849 1.1088614 0.01993383
000020 02 e3 97 3d 73 28 81 3f cc 29 30 be b0 fd 1c 3d
       0.07416345 1.0090469 -0.17203444 0.038327873
000030 7f bc c2 be 4a fd 20 3f 51 f8 14 3f c8 2a 57 3f
       -0.38034436 0.6288649 0.581914 0.84049654
000040 fa 03 3d 3e 71 f7 87 be 89 10 58 3d ca 2b 44 3e
       0.18458548 -0.2655597 0.052750144 0.19157329
000050 55 49 50 3e 80 a0 c2 bc 23 42 30 3f e1 88 41 3f
       0.20340474 -0.023758173 0.68850917 0.75599486
000060 6d 63 03 3e 9c 3e 2c 3f d8 46 1c 3f f0 0d d3 be
       0.12830897 0.67283034 0.610456 -0.4122157
000070 3e 39 b6 bc ac 8f 4d be fc f2 25 3c 2b 24 28 bf
       -0.022244092 -0.20074338 0.010128733 -0.6568019
000080 20 85 fe 3e ff 1b ce bd 71 33 ca bc 44 f3 73 3e
       0.4971094 -0.100639336 -0.024682732 0.23823267
000090 12 8d 53 bc ca 19 85 3e 54 8e 29 3f ad bd 09 be
       -0.012912052 0.25996238 0.662328 -0.13451262
0000a0 4b 3a 03 be 15 cf 3c bd ac 7c 58 3b 9c b0 09 be
       -0.12815206 -0.046095926 0.0033033295 -0.13446277
0000b0 64 2f 0e bf 32 03 76 3f 7d 49 f2 3e 6b aa 87 3f
       -0.5554106 0.96098626 0.47321692 1.0598882
0000c0 cd 65 d9 be 27 e2 da 3e 0f 40 26 bd 0b 5b 81 3f
       -0.4246048 0.42750666 -0.040588435 1.0105909
0000d0 74 21 f6 be 4c 94 27 3e 77 bb 5d 3e 43 4e c4 be
       -0.48072398 0.16365165 0.21653543 -0.3834096
0000e0 bf 88 9b bd 24 e5 8f be b5 0e 88 bd c9 42 77 be
       -0.075944416 -0.28104508 -0.0664343 -0.2414657
0000f0 b5 b0 dd be 75 f9 fc 3e 63 e2 a2 3e 07 e2 aa 3e
       -0.4329888 0.4940907 0.31813344 0.3337557
000100 4c 9e bf 3e 1b cc 9e 3e 51 31 1c 3e 89 99 8b 3d
       0.37425458 0.31015095 0.15253188 0.06816394
000110 8c 88 68 3e 34 af 91 be bd 8d 9c 3e ac 87 44 3e
       0.22708338 -0.28453982 0.30576888 0.1919238
000120 ca 13 54 be 4d 11 cc be f6 ec 38 3f e2 d8 69 3e
       -0.20710674 -0.3985695 0.72236574 0.2283664
000130 c1 2a 4c 3f 97 a0 d1 3d c5 90 5d 3c 07 5c cc 3e
       0.7975274 0.10235708 0.013523285 0.3991396
000140 86 72 7b 3f 1e 0d f7 3e 72 38 33 3f 99 87 e2 be
       0.98221624 0.48252195 0.70008004 -0.44244078
000150 ab d9 12 3f 84 c1 0c 3e e3 aa 6f 3f 5d 3f b0 bc
       0.57363385 0.13745695 0.9362013 -0.021514589
000160 8f 8b 51 3f 23 9c 05 be e0 db e1 3d cf f2 54 3f
       0.81853575 -0.13047843 0.11028266 0.83182997
000170 37 ba 81 3e c8 15 96 3e d2 9d 26 bf 9e 17 0e 3f
       0.25337383 0.29313493 -0.65084565 0.55504787
000180 73 8d 80 bc 8c 52 11 bf a5 50 26 3e 69 20 3d 3d
       -0.015692448 -0.5676658 0.16241701 0.046173487
000190 ae da d1 3e 36 b6 4e bd 7d 44 e3 3e 7c 8e 21 3f
       0.40987152 -0.05046674 0.4438819 0.6310804
0001a0 90 f6 b4 3e 6d bb 85 be b8 8c 61 3f ba fd ed 3e
       0.35344362 -0.26119557 0.88105345 0.4648264
0001b0 f2 80 32 bd db 5d 6f 3f 1b 7c e1 bd 71 83 9d 3e
       -0.043580003 0.9350259 -0.11009999 0.30764344
0001c0 17 b7 54 3f 85 ae 1d 3f a2 2d d4 be 0d ca 11 3e
       0.8309187 0.6159442 -0.41441065 0.14237233
0001d0 7e f3 36 3e a9 ba 1c 3e 68 d3 75 3f 6f 6e 83 3f
       0.17866322 0.1530558 0.96025705 1.0268077
0001e0 e0 74 f4 be 4b eb 9c 3d ae 11 94 3c fd 69 ee 3e
       -0.4774542 0.07662066 0.018074837 0.46565238
0001f0 d7 33 55 3e 93 55 0b 3f dd 05 3e 3f 1d c2 fc 3c
       0.20820557 0.5442745 0.74227697 0.03085428

net.2.weight f4 [64, 128]
000000 4d 34 9b 3e 78 a4 35 3e 26 66 9d 3e a5 c9 f5 3e
       0.3031334 0.17738521 0.30741996 0.48005405
000010 50 f0 fc be 51 ed 7a be 23 aa 31 bf 36 80 b5 3e
       -0.49402094 -0.24504592 -0.69400233 0.3544938
000020 0d 38 48 3e 39 f9 ac be 17 7e b8 3e a5 66 04 3f
       0.19552632 -0.33783892 0.360337 0.51719123
000030 cf 67 6d 3f 28 65 80 bc 88 11 dc bd 53 68 cf be
       0.92736524 -0.015673235 -0.10745531 -0.4050928
000040 e8 d3 3c 3f 1f 52 b2 3e d2 0d 86 3c 20 d9 c0 be
       0.73760843 0.34828278 0.016364012 -0.37665653
000050 de 60 c5 3c 3e 1a 60 3e 97 4e 3e 3c 4c ce 04 bf
       0.024094041 0.2188501 0.011615417 -0.51877284
000060 78 44 2a 3e e2 07 5f bf af 96 73 be 9a ce ee 3e
       0.16627681 -0.87121403 -0.2378795 0.46642
000070 75 60 c5 3c d0 26 f9 bd 34 74 87 3e 59 6e 57 3e
       0.024093846 -0.12165606 0.26455843 0.21038188
000080 74 c2 ce 3d 22 da ee 3d 7d d4 38 3f 97 48 dc bd
       0.10095683 0.11662699 0.7219923 -0.10756033
000090 ed f9 14 be 8d 57 34 3f b9 ec b5 be 6f c3 32 3d
       -0.14548464 0.7044609 -0.35532168 0.04364341
0000a0 ae a9 f2 3e c8 da 52 3a ee 1f 9c 3e 93 51 dd 3e
       0.4739508 0.0008043465 0.3049311 0.432263
0000b0 ba 79 1f 3e 4d 34 8f be ff 8d fc bd f2 63 c6 bd
       0.15573779 -0.2796959 -0.12331771 -0.09687032
0000c0 90 ca 40 3e 46 c2 0f be 81 72 16 3e b7 99 aa bd
       0.18827271 -0.14038953 0.14692117 -0.083301
0000d0 7c 0a 81 bf 7b 61 5f be 05 8c e5 3e bd 51 2f 3f
       -1.0081325 -0.2181453 0.4483339 0.684841
0000e0 29 af 27 3e 15 20 f5 3d ec b7 6a 3e e4 eb 06 3f
       0.16375412 0.1196901 0.22921723 0.5270369
0000f0 b6 4c e5 3e ac 38 97 3e ec b6 b5 3d 6b 51 0e be
       0.44785088 0.29535425 0.0887278 -0.13898246
000100 2f ff c4 3e b0 ba e5 3e fb 47 67 3e fc 0c 9d 3d
       0.3847594 0.44868994 0.22586052 0.07668492
000110 9a e9 b9 3e d2 48 0c 3f 45 d2 8e 3e c4 b6 a8 3e
       0.36311036 0.54798615 0.27894798 0.3295194
000120 8f 42 d1 3e 51 e8 cc 3e 85 a4 98 be 5c 21 a1 3e
       0.40871093 0.40020993 -0.29813018 0.31470764
000130 95 6b 80 be 74 e7 14 3f ea 8e f2 3e 26 59 8c bc
       -0.2508208 0.5816567 0.4737466 -0.017132353
000140 08 fb 58 be 26 0c d9 3d b3 41 19 be 7a 84 41 3f
       -0.21189511 0.1059802 -0.14966469 0.7559277
000150 42 92 e7 bd 8c ea 33 3e 83 0b 0f be 04 be 8c 3e
       -0.11307193 0.17569941 -0.13969235 0.2748872
000160 4b 5b ba be 25 ae 47 3f d5 46 3c 3e f1 a6 50 be
       -0.36397776 0.780001 0.18386395 -0.20376183
000170 05 44 08 3f e6 56 8e 3e 2e 1d 0e 3f f8 8d a6 3e
       0.5322879 0.27800673 0.55513275 0.3253019
000180 42 b5 d9 3e b5 91 ad 3e 9d 4a 62 3e 6c d0 c9 3d
       0.425211 0.33900228 0.22098775 0.098542064
000190 d5 88 5e 3e 7a a8 fa 3e 74 6e 8a 3e d2 cd 12 be
       0.21731885 0.48956662 0.27037394 -0.14336327
0001a0 aa 83 fb 3e aa 1f 06 3f e8 43 9f be bc 3c 26 3e
       0.4912389 0.52392066 -0.31106496 0.16234106
0001b0 de 18 b7 3e 9f b5 e8 be 6a ee 2c 3f cd 1f 77 3e
       0.3576116 -0.45451066 0.6755129 0.24133225
0001c0 a7 6c 1e be 08 1e d9 ba 78 8c 40 3e d5 4f 11 bf
       -0.15471135 -0.0016564736 0.18803585 -0.5676244
0001d0 bf f7 95 3e 37 d7 67 3e 1c 7f c0 be 39 e8 6e be
       0.29290578 0.22640692 -0.37596977 -0.23330773
0001e0 b1 54 b7 bd fd dc fe 3e 0b 48 29 3e c8 40 15 bc
       -0.089517005 0.49777976 0.16531388 -0.009109683
0001f0 60 f7 6e 3e c0 30 87 be 12 f1 ce bd 88 44 5e 3e
       0.23336554 -0.2640438 -0.10104574 0.2170583
000200 83 a5 3a be 78 4b ff bc 2b d9 3f 3e 7e 21 e4 be
       -0.182272 -0.031163916 0.18735187 -0.44556803
000210 43 43 8c 3d f5 13 5d be 30 d2 f1 3e 36 33 04 3f
       0.06848767 -0.21589644 0.47230673 0.5164064
000220 17 8f be be 38 2b 91 3e 3a f9 bb be 6f ac 23 3f
       -0.37218544 0.28353286 -0.36713582 0.6393499
000230 da 4b a9 3f e4 56 aa 3c e9 97 e2 3e 98 b7 3c 3b
       1.3226273 0.020793386 0.44256523 0.0028795954
000240 ac 88 7b 3f 5c 0f 08 bb fa bb f3 bd b1 cb 82 3f
       0.9825542 -0.0020761108 -0.11901088 1.0218412
000250 c4 3f 4b 3b 09 01 b5 3d e7 41 21 3e c5 2d 8c 3e
       0.003101335 0.08838088 0.15747796 0.2737867
000260 43 c3 43 bf 27 62 14 3f 0b 8d 78 be 54 40 18 3f
       -0.7646982 0.5796227 -0.24272554 0.59473157
000270 08 21 ea 3c 4f e6 53 be 0f c5 69 be 98 62 e0 bd
       0.028580204 -0.20693325 -0.22829078 -0.10956305
000280 ac 7e aa bd 10 35 29 3e 0d 41 ec be 3d 68 16 3e
       -0.08324942 0.16524148 -0.4614338 0.14688201
000290 4b 52 dd 3e f8 45 e5 3e d8 86 33 be 20 5e 8a bd
       0.43226847 0.44779944 -0.17531908 -0.06756234
0002a0 d5 da b2 be de a1 1a 3e 04 ee ae 3f be e9 85 3e
       -0.3493258 0.1510081 1.3666387 0.26154894
0002b0 e2 50 d1 3e b4 fb 8d be 18 15 3d be ce 02 9c 3e
       0.4088202 -0.27731097 -0.18465078 0.3047089
0002c0 be 0c 10 be ae a6 1e 3e 4e 54 ef be 09 65 83 3e
       -0.14067361 0.15493271 -0.46744007 0.2566302
0002d0 34 d8 d5 3e a5 b5 50 be 01 ad e0 3e ce 2e e1 3e
       0.41766512 -0.20381792 0.43881992 0.43981022
0002e0 6b 47 3f be e9 31 52 be d0 47 29 3d 21 ed 0f 3f
       -0.18679588 -0.20526852 0.04132825 0.56221205
0002f0 f5 b0 2e 3e e4 b9 ad be bf 77 68 be 12 36 b5 bd
       0.17059691 -0.33930886 -0.2270193 -0.08848204
000300 28 b3 b2 3e 1e 1f 6a 3e 9e 91 8e 3d f8 95 10 3d
       0.3490231 0.22863433 0.06961368 0.03529927
000310 81 97 86 bd 4e 2f a2 be 79 a2 32 be c4 ca 61 be
       -0.06571866 -0.31676716 -0.17444791 -0.22050005
000320 96 85 80 be c9 1f 03 3e 90 e7 95 3e 5a 61 94 bd
       -0.25101918 0.12805094 0.2927823 -0.07245131
000330 23 98 bb 3d 89 bd 61 bd dc d3 96 be 64 a6 ec be
       0.09159877 -0.055112395 -0.2945851 -0.46220696
000340 5f 05 90 3e e3 d9 6e 3e f8 1c 5c be 64 d1 af 3f
       0.28129098 0.23325305 -0.21495426 1.3735776
000350 84 8a 94 bd 1f da 04 bd 20 f9 c2 bd c7 3b ec bd
       -0.07252982 -0.03243458 -0.09520173 -0.11534839
000360 c7 bb a3 3f 1b 3b df 3d 51 96 b6 3e 94 59 fd 3e
       1.279168 0.10899945 0.35661557 0.49482405
000370 52 0b 41 3e a3 ef e1 3d 3e c4 85 bd 24 08 4b 3d
       0.18851975 0.11032035 -0.06531571 0.04956831
000380 88 bd f0 3d d5 21 fa be cd 1f 0f 3e 11 18 2e be
       0.117549 -0.48853937 0.13976975 -0.17001368
000390 43 8e b0 3e 0f e8 cb 3d 50 4f f9 3d f4 69 24 3e
       0.34483537 0.09956371 0.12173331 0.16056043
0003a0 f7 33 71 be fa 8a f6 bd 14 21 3e 3d 94 2a a2 be
       -0.2355498 -0.120382264 0.046418265 -0.3167311
0003b0 8f b6 38 3c 28 85 87 3e 7e 46 f5 be ee 61 7a be
       0.011273994 0.26468778 -0.47905344 -0.2445142
0003c0 d9 8d 40 be ac 7a 0d 3d e6 ca 99 3f 5a 47 4e 3f
       -0.1880411 0.034540817 1.2015045 0.80577624
0003d0 47 3d 66 be a1 db 27 be c3 a4 93 3d f8 01 f2 3d
       -0.22484313 -0.16392376 0.0720916 0.11816782
0003e0 14 7b bf be 8b 72 96 be ac 96 77 3e 2d 09 7d 3e
       -0.3739859 -0.29384264 0.2417857 0.24710532
0003f0 1d c1 38 bb ed fb 87 3e 8e d3 89 3e c6 f3 b6 3b
       -0.0028191276 0.26559392 0.26919216 0.0055832593

net.2.bias f4 [64]
000000 cd 4c 8c be c7 fb dc 3e 68 6b 44 3e b7 21 6e 3d
       -0.27402344 0.4316084 0.19181597 0.05813762
000010 3a 00 30 be 65 b4 c0 3e d8 9b 88 be 80 91 85 be
       -0.17187586 0.3763763 -0.266814 -0.2608757
000020 a5 0a 02 3f ef eb cd 3e ef 5b 69 be 99 d9 5f 3d
       0.5079749 0.40219066 -0.22788976 0.054650877
000030 fa b7 a9 bd a4 c7 cf bd 71 94 dd 3e 5b eb 60 be
       -0.08287044 -0.101455 0.43277314 -0.21964781
000040 25 37 c9 be db ad d5 be b6 d4 a7 be ef d2 ef bb
       -0.39299884 -0.41734204 -0.32779473 -0.0073188464
000050 fe b1 06 3f 2e 61 b0 be ab 89 ac be c0 03 d7 bd
       0.52615345 -0.34449142 -0.33698782 -0.10498762
000060 4e 44 b2 be 91 d1 85 3d 3e f7 d1 be e0 77 c1 bb
       -0.34817737 0.06534112 -0.41008943 -0.005904183
000070 09 cb c5 be 17 4b 11 bc 61 ba c0 be a2 66 7d be
       -0.38631466 -0.0088680005 -0.37642196 -0.24746183
000080 3f 70 6c be 16 e7 37 be de aa 0f be 12 53 9d bd
       -0.23089693 -0.17959246 -0.14030024 -0.0768186
000090 be 03 ce be a4 11 dc bc d8 c8 a2 3e 27 03 a9 be
       -0.4023723 -0.02686388 0.31793857 -0.33010218
0000a0 12 78 f8 3d da 0e 06 be 94 f8 85 be 05 50 b1 be
       0.121322766 -0.13091603 -0.26166213 -0.34631363
0000b0 5f 28 83 3c c9 7c 8c 3f 59 1a 80 bd 13 41 65 bd
       0.016010461 1.0975581 -0.062550254 -0.055970263
0000c0 8e 15 bd be e2 2a 00 bf 15 7f b2 be 8f 71 ca be
       -0.36930507 -0.50065434 -0.3486258 -0.39539763
0000d0 1d 94 c9 be 6a db 02 be 45 49 fe 3c 9d d1 ca be
       -0.39370814 -0.12779012 0.031040797 -0.39613047
0000e0 69 66 78 be ed a6 8f bd 27 24 70 3e ea 67 c7 be
       -0.24257816 -0.070142604 0.23451291 -0.38946468
0000f0 bd 82 b2 be 01 bb c5 bc 7b 4f 8e be 75 1d 83 be
       -0.3486537 -0.024137022 -0.27795014 -0.2560841

net.4.weight f4 [4, 64]
000000 c2 cd 91 be e5 c4 42 3f f0 15 cb 3f 90 9f b3 3f
       -0.28477293 0.7608169 1.586607 1.403307
000010 0d 92 1d bf d3 e7 86 3e 31 c9 a9 be ee ba 29 bf
       -0.6155098 0.26348743 -0.3316131 -0.6630086
000020 94 03 3d 3f 25 ad 65 3f 9e 85 0f bf c6 6a 6d bd
       0.73833585 0.8971732 -0.5606326 -0.057963155
000030 ed 95 c0 bd 6b c0 05 bf 7c 27 09 40 1f e3 3e bf
       -0.09403596 -0.5224673 2.143035 -0.7456531
000040 48 fa 2e be 75 be 2f bf dc cc 30 bf f4 42 e5 3d
       -0.17087662 -0.6864999 -0.6906259 0.11194411
000050 e5 74 f4 3f 34 e2 15 bf 60 2b 5d bf e0 59 e8 3d
       1.9098173 -0.58548284 -0.8639431 0.11345267
000060 e7 fa 62 bf 2c 8c bb 3f f8 06 7d bf 1c 34 5b 3d
       -0.88664097 1.4652152 -0.9883876 0.053516492
000070 d1 29 5d bf db 1f 07 3f 0c 42 3c bf ca 6e 48 bf
       -0.8639193 0.5278298 -0.7353828 -0.7829405
000080 e2 97 0b bf 6c 17 2d bf 67 e5 90 be b2 ed 25 bf
       -0.5452863 -0.67613864 -0.2830002 -0.6481582
000090 11 62 8e be 90 4e e3 be 35 64 ad bf 3a 16 02 bf
       -0.27809194 -0.44395876 -1.3546206 -0.50815165
0000a0 4a f6 44 bf 81 7b c2 be bc d5 47 bf 73 7b c5 be
       -0.7693831 -0.3798485 -0.7806051 -0.38570747
0000b0 6a d6 88 3d 08 0c de 3f a9 b5 78 3f ae 99 f2 3d
       0.06681521 1.7347422 0.9715219 0.11845718
0000c0 cc e7 1a bf 41 ee 99 3e 4e 41 b1 be 5c 1f 61 bf
       -0.60509944 0.30064586 -0.34620136 -0.87938476
0000d0 2d cb 0d bf 59 63 5c 3e 70 d4 d2 be d1 97 e4 be
       -0.55388147 0.21522273 -0.41177702 -0.44647077
0000e0 83 ca 44 bf 7c ea dd bd 16 0a 7a 3f c1 e8 26 bf
       -0.7687151 -0.1083574 0.9767164 -0.65198904
0000f0 b6 19 cd be 9a df c2 be 80 5f 0e bf 0d 66 28 bf
       -0.40058678 -0.3806122 -0.5561447 -0.6578072
000100 fd b6 b6 be 22 d8 ab 3f 28 cf ec 3f cd ac c6 3f
       -0.35686484 1.3425333 1.8500719 1.5521485
000110 15 a6 f7 be 2f e6 eb be c3 35 ce be 44 09 10 bf
       -0.48368898 -0.46074054 -0.40275392 -0.5626414
000120 a2 ea 2a 3f ff 7c 3f 3f 3b e2 13 bf 6e b4 71 3c
       0.6676427 0.74800104 -0.57767075 0.01475249
000130 76 02 04 be 94 a1 1d bf 63 cf fb 3f d8 d6 bf be
       -0.12891564 -0.61574674 1.9672664 -0.374686
000140 37 dc 39 bf ac 50 00 bf 21 f3 d7 be 32 b9 87 bd
       -0.72601646 -0.50123096 -0.4217768 -0.0662712
000150 eb 41 f0 3f 2d 39 14 bf f8 2e 33 bf dc b5 50 bd
       1.8770117 -0.57899743 -0.69993544 -0.050954685
000160 78 75 10 bf 45 cb c8 3f 11 76 30 bf aa be 8f bd
       -0.56429243 1.5687033 -0.68930155 -0.07018788
000170 08 2f c0 be 82 1c 25 3f e1 84 fd be 7d 7c 07 bf
       -0.37535882 0.64496624 -0.4951544 -0.5292433
000180 c8 01 4f bf 5b d3 06 bf d6 bd d1 be ec f8 0d bf
       -0.8086209 -0.5266625 -0.40965146 -0.5545795
000190 87 90 3b bf 87 97 33 bf a2 2e c3 bf c0 96 dc be
       -0.73267406 -0.7015309 -1.5248606 -0.43083763
0001a0 b9 0f 2b bf 05 71 cd be df 79 fd be 0d ad 24 bf
       -0.66820866 -0.4012529 -0.49507043 -0.64326555
0001b0 88 79 a5 3c fc 2f fa 3f aa 8f 19 3f 18 c7 e8 bd
       0.020199552 1.9545894 0.5998484 -0.11366099
0001c0 06 92 27 bf 3b 17 42 be 71 c4 2f bf 2a 74 3a bf
       -0.6545719 -0.18954174 -0.6865912 -0.728335
0001d0 4d f4 3b bf 64 95 93 3e 70 d7 00 bf 84 0d 17 bf
       -0.7341965 0.28824914 -0.5032873 -0.59005
0001e0 f5 a7 ca be fb 5a e6 3d ca 58 90 3f 45 a6 16 bf
       -0.39581266 0.11247822 1.1277096 -0.5884746
0001f0 ee 9e 29 bf 82 41 12 bf 0b 00 e2 be 82 2e db be
       -0.6625813 -0.57131207 -0.44140658 -0.4280892
000200 5f 2d 7d bf 9a 0c b3 bd a4 ea 7a 3f 5e c7 a0 3f
       -0.98897356 -0.08742638 0.98014283 1.2560842
000210 06 dd b5 be 20 e7 6e be 72 ca 6f bf ad b4 fa be
       -0.3552019 -0.23330355 -0.9366828 -0.4896597
000220 6e 03 95 3f 04 f4 a0 3f fd 64 eb be 44 e4 23 3b
       1.1641672 1.2574468 -0.45975485 0.0025007883
000230 f0 96 1b 3d 92 9d de be 50 d1 09 40 da e6 0f bf
       0.037985742 -0.43479592 2.1534004 -0.56211627
000240 93 0e 1e bf 9c 58 58 bf d1 1d 74 bf 26 15 be 3d
       -0.6174099 -0.8451021 -0.95357996 0.092813775
000250 ea 3d fa 3f 8d cb 1f bf ef c7 f3 be 7d f7 81 3c
       1.9550145 -0.6241997 -0.47613475 0.015865082
000260 95 48 60 be 12 06 ea 3f 8a 6b 34 bf 00 f4 77 bc
       -0.21902688 1.8283103 -0.7047659 -0.015133858
000270 bb ec 43 bf 59 9b a7 bf 6a 9f fb be e4 92 4b bf
       -0.765331 -1.3094283 -0.4914506 -0.7952101
000280 d0 03 16 bf 5a fa 90 be 2a 08 91 bf 0b 61 d5 be
       -0.5859957 -0.28316003 -1.1330616 -0.416756
000290 68 58 f1 be ca d6 8b 3d c8 dd bf bf 48 cf 13 bf
       -0.4713776 0.06828077 -1.4989557 -0.5773816
0002a0 5e 68 d0 be 4e 26 2d bf b7 cf 52 be 74 2e ff be
       -0.40704626 -0.67636573 -0.2058705 -0.49840128
0002b0 0e 4b 8a bd 7c c6 b4 3f 13 6e 97 3f 2a 17 cf bd
       -0.06752597 1.4123073 1.1830467 -0.1011184
0002c0 21 de 32 bf 65 a8 bb 3e 90 92 fb be 50 d3 19 bf
       -0.6987019 0.36651912 -0.49135256 -0.6008806
0002d0 de 13 1b bf f4 4d 9e bf 80 2c 1f bf 41 7e 1f bf
       -0.6057719 -1.236754 -0.62177277 -0.62302023
0002e0 28 03 fa be a0 cf 84 bc 74 06 af 3f 2b 53 d0 be
       -0.48830533 -0.016212285 1.3673844 -0.40688452
0002f0 9c 2b 5c bf 25 5d 33 bf c2 de 89 bf 51 44 15 bf
       -0.8600404 -0.70064 -1.0771105 -0.5830737
000300 2a 24 24 bf 30 d7 72 3f f8 c2 d5 3f b3 d8 78 3f
       -0.6411768 0.948596 1.6700125 0.97205657
000310 14 8d 65 bf 59 3b 67 3f 14 57 0c bf 10 d2 33 bf
       -0.89668393 0.9032493 -0.5482037 -0.70242405
000320 46 85 39 3f 4d 7a 53 3f 12 4d ea be 40 82 15 bd
       0.72468984 0.8260849 -0.45761925 -0.03650117
000330 44 9f cf 3c cd d6 03 bf fc 07 12 40 32 45 58 bf
       0.025344498 -0.51499635 2.2817373 -0.84480584
000340 07 2a f2 be 08 98 ae be 9d d1 34 bf 57 b8 96 3b
       -0.4729769 -0.34100366 -0.70632344 0.0045996117
000350 43 91 f4 3f 70 91 08 bf 27 44 ae be 0a f8 45 3d
       1.910683 -0.5334692 -0.3403637 0.04833225
000360 77 d2 3b bf 79 63 a2 3f 76 bc 10 bf 88 14 83 3d
       -0.7336802 1.2686607 -0.5653757 0.064004004
000370 c0 75 61 bf 3a e4 90 3e 4b e4 7b bf 59 a8 3d be
       -0.880703 0.28299123 -0.9839522 -0.18521251
000380 98 df e1 bd 96 62 44 bf e8 60 80 be 00 b2 aa be
       -0.11028975 -0.7671293 -0.25073934 -0.33338928
000390 c4 ad 29 bf c7 51 5f bf 03 2c c2 bf 4e c6 f3 be
       -0.6628077 -0.8723416 -1.5169681 -0.47612232
0003a0 ea 04 28 bf 28 5f 2a bf b7 6e 4b bf d1 43 34 bf
       -0.656325 -0.66551447 -0.7946581 -0.7041598
0003b0 fb 62 e4 bd 3c 33 ca 3f 92 32 67 3f c6 5a d2 3c
       -0.111516915 1.5796885 0.9031154 0.02567805
0003c0 d3 5b c0 be af 7a bd 3c 11 b3 fa be 3b e8 16 bf
       -0.37570056 0.02312979 -0.48964742 -0.58948106
0003d0 a2 d7 18 bf 71 b4 8e 3f 2c 74 ec be 59 05 c8 be
       -0.5970403 1.1148816 -0.46182382 -0.3906658
0003e0 17 18 87 bf d3 35 84 3b bc 4d 8e 3f 4f db 0b bf
       -1.0554227 0.0040347367 1.1117473 -0.54631513
0003f0 6d 6a ca be d6 0b a2 be 5d b0 33 bf 73 d0 de bd
       -0.3953432 -0.31649655 -0.70190984 -0.10879602

net.4.bias f4 [4]
000000 bd 63 ac 3e 73 c8 bf 3e c3 33 57 3e 1b e3 9a 3e
       0.33669844 0.37457618 0.2101584 0.30251393
