results/ddqn_agent.pt (torch, 75430 bytes, 6 tensors)

net.0.weight f4 [128, 8]
0.5707598 -0.16619633 0.16459838 -0.7190102 -0.731708 -0.40126717 -0.0922246 -0.35690382
0.0626572 -0.55304325 0.57848823 -1.0852596 -0.12990792 0.32868838 -0.13324662 -0.021398965
-0.1908516 0.77131253 0.092122294 -0.16990359 -0.10794287 -0.08041635 0.45859066 -0.006399795
-0.02133867 -0.06711294 -0.660198 -1.4216694 0.96470284 0.2826955 0.2663417 0.25550637
0.39340422 0.40039366 -0.40085363 -0.6746123 -0.2198346 0.1360988 0.018779214 0.17222656
-0.19706924 -0.10049031 0.06087387 -0.63377285 -0.21949892 -0.24232043 -0.34277338 -0.0490443
-0.29113242 0.18299146 0.2743947 -0.22015807 0.100387044 0.39623106 0.3742544 0.37431693
-0.39480293 0.23002486 -0.16792187 -0.0877979 -0.43473214 -0.24106885 0.31310207 0.036016077
0.52909356 0.23333108 -0.09771536 -0.47581136 0.87278086 -0.81992537 -0.6280481 0.15618199
-0.34922743 0.2777383 -0.27054042 -0.33648452 0.21692517 0.08086214 0.008769694 0.39502612
-0.27638686 0.08049366 -0.103215 -0.28547332 0.12751089 0.21822296 0.030285127 0.46480876
0.20416322 0.025783751 1.0139858 -0.5641711 -1.0880166 0.107220136 0.27801013 0.1964817
-1.3118786 0.053009596 -0.29374924 -0.5740355 -0.0789692 -0.1599404 0.13951269 -0.19366972
0.17883214 0.70616925 -1.0417023 -0.16758433 0.58627886 0.78740823 0.028101511 -0.070201136
0.19999143 -0.15602672 0.30439985 -0.2409303 -0.08052498 -0.31910774 0.10661878 0.1422303
0.029978378 0.9013466 0.24817015 -0.52885795 -0.04667586 -0.07016989 0.31144744 0.3833537
-0.660897 -0.02089655 -0.09691522 0.14375511 0.56753486 0.58376855 -0.12808764 -0.405769
-0.13014619 -0.481836 -0.3177453 0.1527252 0.22905809 -0.3989431 -0.12630235 0.35612464
0.15353724 -0.9650446 0.35248005 -0.08335674 -0.33859828 0.029419074 -0.12099758 0.5983669
0.09474014 -0.07505728 0.32699218 0.024381945 -0.53093964 0.5805042 0.17567539 -0.881157
0.4380661 0.19864176 0.538508 -0.004912129 -0.27214077 -0.20309074 0.13636322 0.054917354
-0.14383954 0.93538094 0.36705536 -0.63917416 -0.07313771 0.26343748 0.43472445 -0.025874626
0.50072783 0.45216435 0.075349234 0.58584696 -0.73017937 -0.23538844 -0.0034003947 0.13793346
0.57634646 -2.3941777 -0.42224312 0.0702772 -0.038404346 0.08855103 -0.020703474 0.27710247
-0.26309228 -0.75268036 -0.2383308 0.12682287 -0.6518404 -0.0934944 -0.10738541 0.051883798
-0.2774719 -0.003258728 -0.06601295 -0.50739515 -0.21326311 0.24314827 0.22105289 0.39326322
-0.76598495 -0.60395354 -0.14205891 -0.56790334 0.31913212 0.27352378 0.025910363 0.40121436
0.005488699 0.19718698 -0.46388492 -0.7278561 0.3079241 0.004869264 -0.12027987 0.4359382
-0.101993434 -0.22585456 0.037275854 -0.034063898 0.072147615 -0.41580373 0.21983427 0.15022482
-0.35060892 0.03694222 -0.28480533 -0.2471607 -0.32005656 -0.18452986 -0.89058435 -0.5369037
-0.7997142 0.014805861 -0.010549145 -0.07239915 0.096562676 0.1814409 0.38490537 -0.43274605
0.28158867 -0.6840067 0.15309437 0.043742258 0.07035053 -0.1397162 -0.102224804 0.55361587
00000000: 501d 123f 5f2f 2abe 7a8c 283e 0d11 38bf
00000010: 3751 3bbf e472 cdbe 40e0 bcbd 19bc b6be
00000020: 6b52 803d 3e94 0dbf ce17 143f c9e9 8abf
00000030: 9506 05be d849 a83e cd71 08be e24c afbc
00000040: 9a6e 43be bd74 453f 9daa bc3d 35fb 2dbe
00000050: 2711 ddbd 54b1 a4bd 65cc ea3e 5fb5 d1bb
00000060: 6fce aebc 8272 89bd bc02 29bf 43f9 b5bf
00000070: c4f6 763f 77bd 903e f05d 883e bbd1 823e
00000080: 476c c93e 6600 cd3e b03c cdbe 64b3 2cbf
00000090: 521c 61be 7c5d 0b3e ded6 993c 295c 303e
000000a0: 85cc 49be ddcd cdbd e156 793d f03e 22bf
000000b0: 53c4 60be d922 78be fe7f afbe ade2 48bd
000000c0: 4f0f 95be 1d62 3b3e 767d 8c3e 1e71 61be
000000d0: b997 cd3d ccde ca3e 469e bf3e 78a6 bf3e
000000e0: 9c23 cabe a38b 6b3e b6f3 2bbe 63cf b3bd
000000f0: 3695 debe c1da 76be ea4e a03e 9885 133d
00000100: ad72 073f 58ee 6e3e fe1e c8bd 8c9d f3be
00000110: 916e 5f3f a1e6 51bf c3c7 20bf 2cee 1f3e
00000120: f0cd b2be b733 8e3e 4684 8abe b347 acbe
00000130: a221 5e3e 0d9b a53d c3ae 0f3c dd40 ca3e
00000140: 9482 8dbe dcd9 a43d 6362 d3bd 8f29 92be
00000150: 3792 023e d775 5f3e 8418 f83c 6afb ed3e
00000160: 2a10 513e 7238 d33c 49ca 813f 846d 10bf
00000170: 2144 8bbf 3b96 db3d 5857 8e3e 8032 493e
00000180: a3eb a7bf 9720 593d 4d66 96be fef3 12bf
00000190: 9bba a1bd 6bc7 23be 6adc 0e3e 5b51 46be
000001a0: c61f 373e 82c7 343f 8056 85bf 3a9b 2bbe
000001b0: 5f16 163f 9693 493f 2435 e63c 9dc5 8fbd
000001c0: 8eca 4c3e 78c5 1fbe 4cda 9b3e 6fb6 76be
000001d0: 48ea a4bd 1762 a3be f25a da3d d2a4 113e
000001e0: 3795 f53c a7be 663f 5120 7e3e 3c63 07bf
000001f0: 302f 3fbd 3bb5 8fbd 0a76 9f3e f046 c43e
00000200: 8c30 29bf 3e2f abbc 7d7b c6bd 8a34 133e
00000210: f749 113f db71 153f 6829 03be f4c0 cfbe
00000220: 0b45 05be 35b3 f6be 83af a2be ff63 1c3e
00000230: 348e 6a3e 4542 ccbe 6755 01be f855 b63e
00000240: de38 1d3e 2a0d 77bf 4478 b43e f0b6 aabd
00000250: c15c adbe 4500 f13c 94cd f7bd 932e 193f
00000260: 1e07 c23d a2b7 99bd 856b a73e a5bc c73c
00000270: a9eb 07bf ec9b 143f 40e4 333e 8193 61bf
00000280: 334a e03e bf68 4b3e a9db 093f edf5 a0bb
00000290: 0956 8bbe 05f7 4fbe cda2 0b3e 05f1 603d
000002a0: ac4a 13be 2075 6f3f aeee bb3e eba0 23bf
000002b0: 39c9 95bd 47e1 863e 3494 de3e 06f7 d3bc
000002c0: b32f 003f 1682 e73e b350 9a3d 11fa 153f
000002d0: 09ed 3abf ab09 71be 28d9 5ebb 6e3e 0d3e
000002e0: 718b 133f 353a 19c0 4030 d8be 7eed 8f3d
000002f0: e04d 1dbd 3e5a b53d 559a a9bc 60e0 8d3e
00000300: 08b4 86be a9af 40bf fd0c 74be dbdd 013e
00000310: 03df 26bf fe79 bfbd e2ec dbbd 1b84 543d
00000320: cc10 8ebe 6290 55bb cc31 87bd a6e4 01bf
00000330: a561 5abe dcfb 783e b05b 623e cc59 c93e
00000340: 9717 44bf b39c 1abf e477 11be 1d62 11bf
00000350: 4965 a33e 4f0b 8c3e f841 d43c f86b cd3e
00000360: 8bda b33b 62eb 493e 5382 edbe c754 3abf
00000370: 3aa8 9d3e 598e 9f3b 4b55 f6bd 4b33 df3e
00000380: efe1 d0bd 6b46 67be 91ae 183d 9686 0bbd
00000390: 21c2 933d 3ae4 d4be 3c1c 613e 89d4 193e
000003a0: 0383 b3be ba50 173d 01d2 91be b217 7dbe
000003b0: 74de a3be 65f5 3cbe 56fd 63bf 8572 09bf
000003c0: 12ba 4cbf 4894 723c 52d6 2cbc 0146 94bd
000003d0: a7c2 c53d a5cb 393e 5112 c53e e490 ddbe
000003e0: 642c 903e 101b 2fbf c5c4 1c3e 152b 333d
000003f0: f013 903d c311 0fbe 3d5b d1bd c5b9 0d3f

net.0.bias f4 [128]
-0.071118616 0.21708639 1.0216726 -0.010980294 0.8164842 -0.6271241 -0.45774043 -0.33309656
-0.32611406 -0.24756996 -0.2567461 -0.47059003 -0.14727221 0.0253382 0.3528497 1.0524026
-0.54599434 -0.18211919 -0.30005428 -0.051271595 0.22474992 0.33715513 0.20494801 0.63245595
-0.45180395 -0.21390474 -0.38203973 -0.0367328 0.29964086 0.29743943 -0.4684869 -0.1846248
0.97586405 0.47352648 0.34571636 0.4118523 0.020976443 0.6931088 0.38404146 -0.08158289
0.4723069 0.41366908 0.011608856 0.44579008 -0.35118943 0.25620237 0.57213944 0.19483079
0.2409215 0.96694547 -0.41294318 0.43659693 0.25289837 0.36270964 0.12136252 -0.46000746
-0.0084777055 -0.063076794 0.49239525 1.021202 0.24629843 0.34226286 0.39710495 0.039977517
0.24587242 0.22428465 -0.034404065 0.49869558 0.2725478 0.7847382 -0.33895856 0.38880408
-0.0018657064 -0.5335418 0.3357136 -0.11650546 0.0076842443 0.53318363 0.036521584 -0.046033345
-0.42293045 -0.10502934 -0.3344166 -0.17578529 -0.3796947 0.42896846 -0.500033 -0.21179087
-0.0565688 -0.33362958 0.058401227 0.3111441 -0.31038424 -0.017635128 0.723024 0.046157908
0.76107454 -0.16700655 0.21555245 0.14879696 0.28885514 -0.5910512 -0.57751846 0.05463079
0.37065893 0.37389264 -0.47039717 0.22956261 0.5022493 0.32421097 0.30425727 0.5408302
-0.054775763 0.19729133 0.35590693 0.80901515 0.8089181 0.5976685 0.37152514 -0.71453315
-0.4374234 0.4723252 0.9433081 0.25467148 0.5299753 0.146373 0.24171682 -0.5776627
00000000: a3a6 91bd e54b 5e3e 2bc6 823f b1e6 33bc
00000010: 1c05 513f 348b 20bf f45c eabe a28b aabe
00000020: 6cf8 a6be fb82 7dbe 3a74 83be 2df1 f0be
00000030: 87ce 16be 0f92 cf3c b7a8 b43e 21b5 863f
00000040: 49c6 0bbf 747d 3abe b7a0 99be 2a02 52bd
00000050: d824 663e 999f ac3e e4dd 513e a2e8 213f
00000060: d952 e7be d809 5bbe b69a c3be 2275 16bd
00000070: 876a 993e fb49 983e 84dd efbe 490e 3dbe
00000080: 3ad2 793f 1072 f23e bc01 b13e 4ede d23e
00000090: cad6 ab3c 946f 313f 15a1 c43e ee14 a7bd
000000a0: 36d2 f13e 6fcc d33e 1233 3e3c 993e e43e
000000b0: 1acf b3be f52c 833e bb77 123f b981 473e
000000c0: 20b4 763e bd89 773f 4a6d d3be a289 df3e
000000d0: e57b 813e 14b5 b93e ea8c f83d 1986 ebbe
000000e0: 13e6 0abc 682e 81bd 3b1b fc3e bfb6 823f
000000f0: a835 7c3e 143d af3e 5751 cb3e 77bf 233d
00000100: fbc5 7b3e e0aa 653e 47eb 0cbd 0755 ff3e
00000110: 638b 8b3e 9ae4 483f fa8b adbe 5411 c73e
00000120: b88a f4ba 3296 08bf a7e2 ab3e 6a9a eebd
00000130: 1dcc fb3b b97e 083f a897 153d 768d 3cbd
00000140: 578a d8be 9f19 d7bd a738 abbe 0f01 34be
00000150: 5867 c2be c1a1 db3e 2a02 00bf b5df 58be
00000160: b0b4 67bd 7fd1 aabe 2036 6f3d 484e 9f3e
00000170: afea 9ebe 8b77 90bc 1a18 393f 1310 3d3d
00000180: c8d5 423f c403 2bbe c8b9 5c3e 3b5e 183e
00000190: d2e4 933e 224f 17bf 40d8 13bf 89c4 5f3d
000001a0: 02c7 bd3e db6e bf3e e6d7 f0be 7612 6b3e
000001b0: 6993 003f fbfe a53e 9cc7 9b3e d973 0a3f
000001c0: 8d5c 60bd bd06 4a3e 6f39 b63e 9e1b 4f3f
000001d0: 4215 4f3f ce00 193f 8b38 be3e a5eb 36bf
000001e0: f6f5 dfbe 9cd4 f13e a47c 713f 4d64 823e
000001f0: 76ac 073f cee2 153e 9d84 773e b4e1 13bf

net.2.weight f4 [128, 128]
-0.019856391 -0.43412966 0.035520542 0.05784614 0.29126143 0.6311732 0.48306856 0.57178396
-0.9172426 0.39770323 0.1690461 -0.27189484 0.54461604 -0.29061505 -0.042967834 0.18225662
-0.10076057 -0.20194717 0.30189466 0.011764723 0.03601371 0.28924382 0.13908409 -0.05222612
0.69780755 0.14848277 0.61899006 0.36061665 -0.10151961 0.094927676 0.71474195 0.060266845
-0.12704468 -0.095481 -0.19659866 -0.21426903 -0.25996423 0.14976819 -0.05509337 0.6782727
0.18331915 0.06478095 0.116001174 0.24618046 0.5233611 0.14628398 -0.10532474 0.069384806
0.07514177 0.2569798 -0.1577759 0.1349205 0.06701526 0.1281964 -0.88101536 0.6990241
-0.055343468 0.6959969 -0.09833352 0.03215367 0.44014058 0.37922466 0.027337972 0.38524988
-0.013970985 -0.23651342 0.23990348 0.37980157 -0.72222227 0.30244765 0.19861835 0.0615321
-0.17012414 0.43466797 0.026120093 -0.03277873 0.1807895 0.12533624 0.39232528 0.17708585
-0.78903973 0.6265329 0.36012602 0.30288345 0.6979382 0.053737976 -1.0971879 0.31149843
0.17579466 -0.41109955 0.020790724 0.24159952 0.27811992 -0.76006544 -1.1042917 -0.2337132
0.14158124 0.27932537 -0.046081867 -0.44569972 -0.9817009 1.0094593 0.908207 0.90482575
-0.315863 0.10679071 -0.026688151 -0.39771858 -0.08229384 0.11738115 -0.06807924 -0.09353237
0.18975458 0.26184034 0.15070823 0.09877998 0.18635519 0.033642676 0.187252 0.37810013
0.3486303 0.12934059 0.0043888944 0.06414068 0.069560565 0.23329513 0.15628833 0.5311802
0.031657636 -0.56289834 0.20585428 -0.10977868 0.14545514 0.3325019 0.23866062 0.5110578
-0.7038811 0.25082964 0.42697436 -0.013643851 0.5058608 -0.41801378 0.082087785 0.13538675
0.3239198 -0.15098955 0.27950567 0.11800376 0.0057952697 0.13374944 0.28083783 -0.050684847
0.64714974 0.20528808 0.781673 0.4748448 0.13575013 0.15339608 0.55510265 0.011312723
0.20019725 -0.1912157 0.06993978 -0.14504959 -0.10801931 0.20689265 -0.108710945 0.65543026
0.2632606 0.2659874 0.2546662 0.101298176 0.4055017 0.34244412 -0.12466741 0.2980221
0.19897069 0.1321101 -0.048840847 -0.046285592 0.18756083 0.2719923 -0.64483356 0.8479281
-0.008074982 0.35726178 0.06962141 0.10094584 0.748051 0.40992722 0.010134245 0.50709605
0.12949204 -0.3392999 0.22106928 0.111423686 -0.72178113 0.13547322 0.092196286 0.2759767
0.17092843 0.452729 0.102126606 -0.19245096 0.46429917 -0.015501706 0.43085214 0.3697218
-0.5605475 0.46764055 0.47873977 0.3814636 0.5970583 0.12017594 -0.39569902 0.57312554
0.16010225 -0.360607 0.16138788 0.24641877 0.21243791 -0.52310383 -0.81908417 -0.2580991
0.06681568 0.30823982 0.18367386 -0.24820238 -1.0653591 0.37719086 0.3554233 0.64971673
-0.095865294 0.23021422 0.01969544 -0.5318365 -0.10236373 0.06758287 0.031904694 0.052573465
0.17980157 0.2922808 0.13308518 0.030475652 0.16347443 0.12782697 0.027736736 0.4176456
0.06907859 0.34325656 0.15064347 -0.074433826 0.093926676 0.23666759 0.3027521 0.72466946
00000000: dfa9 a2bc 3e46 debe fd7d 113d 13f0 6c3d
00000010: 3820 953e 9194 213f c354 f73e 6f60 123f
00000020: 69d0 6abf c29f cb3e 6c1a 2d3e cd35 8bbe
00000030: f56b 0b3f 7fcb 94be 0aff 2fbd 7ba1 3a3e
00000040: 8f5b cebd 3dcb 4ebe f091 9a3e d3c0 403c
00000050: 1d83 133d c417 943e 0f6c 0e3e 0eeb 55bd
00000060: 84a3 323f de0b 183e 2276 1e3f bfa2 b83e
00000070: 83e9 cfbd 7169 c23d 54f9 363f 5eda 763d
00000080: 0018 02be 8b8b c3bd 2951 49be 5769 5bbe
00000090: 081a 85be d55c 193e 96a9 61bd 48a3 2d3f
000000a0: 04b8 3b3e e0ab 843d 0692 ed3d bb16 7c3e
000000b0: fefa 053f 78cb 153e 7fb4 d7bd 9f19 8e3d
000000c0: eee3 993d db92 833e 0190 21be 9928 0a3e
000000d0: 4c3f 893d eb45 033e 398a 61bf 3ef3 323f
000000e0: d5af 62bd da2c 323f 1663 c9bd 91b3 033d
000000f0: 1b5a e13e bc29 c23e e2f3 df3c 793f c53e
00000100: 8fe6 64bc 9330 72be 42a9 753e 5a75 c23e
00000110: 8fe3 38bf 6bda 9a3e 9c62 4b3e 1509 7c3d
00000120: 0635 2ebe cd8c de3e cef9 d53c fd42 06bd
00000130: e220 393e 2558 003e dcde c83e fe55 353e
00000140: 82fe 49bf 7664 203f 7062 b83e 8a13 9b3e
00000150: 14ac 323f 5a1c 5c3d a770 8cbf b97c 9f3e
00000160: 8403 343e a47b d2be 4f51 aa3c dd65 773e
00000170: bc65 8e3e a693 42bf 6e59 8dbf 8352 6fbe
00000180: acfa 103e bc03 8f3e 57c0 3cbd c132 e4be
00000190: c050 7bbf f635 813f 4180 683f a9a2 673f
000001a0: ccb8 a1be 16b5 da3d 1ca1 dabc c5a1 cbbe
000001b0: ac89 a8bd 8765 f03d 216d 8bbd e68d bfbd
000001c0: 064f 423e f00f 863e 4253 1a3e 284d ca3d
000001d0: e5d3 3e3e e7cc 093d fdbe 3f3e 5796 c13e
000001e0: ac7f b23e dc71 043e b7d0 8f3b 305c 833d
000001f0: c575 8e3d ebe4 6e3e 0c0a 203e 6dfb 073f
00000200: 70ab 013d 1b1a 10bf 77cb 523e a5d3 e0bd
00000210: 31f2 143e b03d aa3e 7363 743e afd4 023f
00000220: 8d31 34bf be6c 803e 629c da3e 758a 5fbc
00000230: 1880 013f e705 d6be a41d a83d d3a2 0a3e
00000240: d1d8 a53e 019d 1abe 5e1b 8f3e f5ab f13d
00000250: 3fe6 bd3b 9df5 083e fac9 8f3e ea9a 4fbd
00000260: 9bab 253f 0a37 523e b91b 483f dc1e f33e
00000270: 1502 0b3e dd13 1d3e 351b 0e3f 0059 393c
00000280: 8200 4d3e 0cce 43be 963c 8f3d e187 14be
00000290: 3a39 ddbd abdb 533e d8a3 debd 47ca 273f
000002a0: 18ca 863e 802f 883e 9c63 823e 6b75 cf3d
000002b0: eb9d cf3e d654 af3e a151 ffbd 5a96 983e
000002c0: f9be 4b3e df47 073e 570d 48bd f695 3dbd
000002d0: f20f 403e 9342 8b3e d013 25bf d111 593f
000002e0: ee4c 04bc 04eb b63e ab95 8e3d b1bc ce3d
000002f0: 4580 3f3f fbe1 d13e 1b0a 263c 0cd1 013f
00000300: 9099 043e b7b8 adbe fc5f 623e 1a32 e43d
00000310: a6c6 38bf 7eb9 0a3e 68d1 bc3d d14c 8d3e
00000320: dd07 2f3e 18cc e73e c127 d13d dd11 45be
00000330: 9fb8 ed3e defa 7dbc a798 dc3e 2d4c bd3e
00000340: 0a80 0fbf 956e ef3e 611d f53e 324f c33e
00000350: d0d8 183f ce1e f63d 1099 cabe 5bb8 123f
00000360: d8f1 233e 7ba1 b8be dd42 253e 3455 7c3e
00000370: 5389 593e 22ea 05bf 80af 51bf 9125 84be
00000380: a9d6 883d 9cd1 9d3e 0015 3c3e c428 7ebe
00000390: b05d 88bf 291f c13e 0bfa b53e d653 263f
000003a0: 0655 c4bd 47bd 6b3e 5558 a13c 7026 08bf
000003b0: 13a4 d1bd e368 8a3d 7fae 023d 4657 573d
000003c0: e71d 383e d4a5 953e 7b47 083e 13a8 f93c
000003d0: d765 273e 13e5 023e 2738 e33c a5d5 d53e
000003e0: 1379 8d3d 53bf af3e 4842 1a3e c370 98bd
000003f0: a15c c03d fd58 723e 5302 9b3e f083 393f

net.2.bias f4 [128]
-0.051377036 -0.015538937 -0.46651366 0.32811254 0.1075086 0.20516972 0.5501622 0.10358169
0.4336128 -0.1552748 0.025333783 0.58059025 -0.052078925 0.0037263583 -0.26898953 -0.058391508
-0.03678269 0.016997935 -0.04674047 0.5460467 0.08704159 0.86100316 -0.035085637 0.49352065
0.122739576 0.43758777 0.06001044 0.5532684 -0.02775754 0.10374982 0.046130136 0.07716388
0.10929673 -0.036949705 0.0012363022 0.0344128 0.096547864 0.17504112 -0.23248085 -0.23593567
0.020382939 -0.2928294 -0.064444706 0.08047055 0.027736593 0.05314849 0.009766538 0.059375532
0.058762766 -0.021907091 -0.039984364 0.025383692 -0.12646578 0.34755498 0.0048913066 -0.29383045
0.52471656 0.050662555 0.10161761 -0.012217402 -0.0006289765 -0.2264191 -0.05111738 -0.023224162
0.114522465 0.0032962172 -0.029070372 0.10378592 0.049245443 0.022316732 0.2964505 0.06556841
-0.017314894 0.08587374 0.40536126 0.074841656 0.038473718 -0.0048624654 0.09758944 0.10481247
0.07062541 0.6222949 -0.35630697 -0.026935287 0.081283994 0.0540023 -0.012888844 -0.06981814
0.11679804 0.06396296 0.09588203 0.061231684 0.035432592 0.009290738 -0.111268364 0.08244115
0.034953974 0.017986992 -0.0067406776 0.12150121 -0.0875876 0.17788576 -0.33894822 0.07445942
-0.22555308 0.00039804404 0.058779232 -0.3191992 0.3401657 -0.0334683 0.08051541 0.028428948
0.027917787 0.01358835 0.08756042 -0.07399962 0.013846241 0.2890995 0.42827427 0.05842868
0.06994481 -0.06266697 0.03547466 0.009389184 0.45958614 0.10205418 0.63658416 -0.07960255
00000000: ba70 52bd 0797 7ebc e1da eebe 5efe a73e
00000010: 782d dc3d 0318 523e 6ed7 0c3f a322 d43d
00000020: 7f02 de3e 5b00 1fbe cb88 cf3c 90a1 143f
00000030: b650 55bd eb35 743b ffb8 89be ef2b 6fbd
00000040: 72a9 16bd 413f 8b3c ef72 3fbd b7c9 0b3f
00000050: dc42 b23d b46a 5c3f f5b5 0fbd bdae fc3e
00000060: e35e fb3d 810b e03e 82cd 753d ffa2 0d3f
00000070: c863 e3bc c97a d43d f4f2 3c3d 1908 9e3d
00000080: f7d6 df3d 9358 17bd 6b0b a23a 70f4 0c3d
00000090: e3ba c53d fb3d 333e 760f 6ebe 1f99 71be
000000a0: 1ffa a63c bced 95be 96fb 83bd becd a43d
000000b0: da37 e33c 3bb2 593d d403 203c c233 733d
000000c0: 3ab1 703d 8076 b3bc a5c6 23bd 76f1 cf3c
000000d0: 3f80 01be baf2 b13e 4147 a03b f270 96be
000000e0: d353 063f 8a83 4f3d e51c d03d 802b 48bc
000000f0: e6e1 24ba 69da 67be 7560 51bd 9940 bebc
00000100: c18a ea3d 5905 583b fd24 eebc b68d d43d
00000110: 97b5 493d 94d1 b63c 5cc8 973e bb48 863d
00000120: f7d7 8dbc 92de af3d 838b cf3e 9546 993d
00000130: 9e96 1d3d 5155 9fbb f9dc c73d eca7 d63d
00000140: 0ea4 903d b84e 1f3f de6d b6be 64a7 dcbc
00000150: 3978 a63d 8431 5d3d bb2b 53bc d0fc 8ebd
00000160: d033 ef3d 03ff 823d cc5d c43d 13ce 7a3d
00000170: c421 113d 2e38 183c abe0 e3bd e8d6 a83d
00000180: e62b 0f3d 7559 933c e7e0 dcbb a0d5 f83d
00000190: 2161 b3bd af27 363e 9f8a adbe 2e7e 983d
000001a0: 63f7 66be 91b0 d039 7ec2 703d 146e a3be
000001b0: 332a ae3e 0e16 09bd 43e5 a43d d3e3 e83c
000001c0: d8b3 e43c aca1 5e3c e152 b33d 1d8d 97bd
000001d0: 58db 623c da04 943e c446 db3e e952 6f3d
000001e0: 393f 8f3d 8a57 80bd e14d 113d 18d5 193c
000001f0: e04e eb3e c801 d13d 2ef7 223f a906 a3bd

net.4.weight f4 [4, 128]
-0.31908548 -0.24997552 -0.5939448 1.2100043 -0.31068468 0.6161459 1.0563793 0.3460706
0.96713006 -0.96183455 -0.91274035 0.9909411 -0.25965196 -0.33828548 -0.54634696 -0.23596457
-0.19669501 -0.24097264 -0.031344526 1.0143663 -0.27146035 1.0899177 -0.22334446 1.1837333
-0.39962724 0.9873038 2.8321126 1.0510811 -0.23131846 -0.23262672 -0.29026407 -0.30419484
-0.3400976 0.092943735 -0.2460287 0.016748363 -0.2977581 -0.25209996 -0.49600807 -0.46687153
-0.32385814 -0.5058375 -0.24331318 -0.3718288 -0.31649137 -0.15969363 -0.21428037 -0.22594732
-0.43903202 -0.057311516 0.08122662 -0.36174312 -0.6478442 1.276275 -0.20530568 -0.66318774
1.1728072 -0.4319226 -0.16127393 -0.29048267 -0.3240878 -0.5191634 -0.2648744 0.4284465
-0.27641943 -0.032993432 -0.3148092 -0.3080626 -0.2129365 -0.19738007 0.09199038 0.024331853
-0.8163645 -0.34414256 0.7484243 -0.2755562 -0.26802018 -0.29825872 -0.3238713 -0.24974814
-0.1631013 1.0014867 -0.33697703 -0.32753283 1.1494113 -0.3179318 1.0635297 0.054582596
-0.22224814 0.020690301 -0.19356246 -0.22429585 -0.34188128 -0.1791596 0.98074627 -0.3182029
-0.21878721 -0.24903171 -0.3260982 -0.2506973 -0.38534743 -0.3355816 -0.4995212 -0.2927529
-0.5263674 -0.28331524 -0.34217602 -0.074878275 1.2381114 -0.4459309 -0.17777354 -0.3104863
-0.29853642 -0.4742022 -0.40675962 0.017841188 0.056226276 1.0684577 1.0999962 -0.18362057
-0.3629037 -0.21914071 -0.30109906 -0.25136766 1.1529851 -0.37605077 1.079273 0.2263785
-0.40163597 -0.17016669 -0.50916314 1.7360908 -0.3163521 0.104361504 1.0679818 -0.24358492
0.97577614 -0.9811022 -0.7006154 1.1558065 -0.27495244 -0.33754236 -1.135788 -0.24720103
-0.17309359 -0.39284587 -0.074140586 1.20756 -0.27623436 1.1374979 -0.21011773 0.90931326
-0.17706922 1.0076009 2.4661362 1.0968344 -0.18665251 -0.23673843 -0.5841311 -0.20229188
-0.2812057 -0.87442297 -0.19469088 0.040246848 -0.26781598 -0.46574163 -0.4655577 -0.2652847
-0.19854535 -0.7417178 -0.23985834 -0.3871048 -0.28570414 -0.3362604 -0.19772148 -0.3008687
-0.1963361 0.06764523 -0.01841707 -0.17625391 -0.35980102 0.8066154 -0.31980538 -0.71842676
0.9580218 -0.5067784 -0.29244983 -0.41936812 -0.34954616 -0.6138152 -0.17481272 0.7119326
-0.3110173 0.38458678 -0.30819917 -0.14469601 -0.25052136 -0.34119743 0.7220165 0.036935363
-0.83471555 -0.23593141 0.95222664 -0.3073874 -0.2027214 -0.28702375 -0.4938113 -0.25540817
-0.19713423 1.0458124 -0.14196937 -0.20102315 0.9412681 -0.21643561 1.2881527 0.055912767
-0.3056778 0.0069669215 -0.2719723 -0.2724504 -0.26051822 -0.34843153 1.0956379 -0.25628686
-0.2711136 -0.28793147 -0.17055935 -0.3949396 -0.1977589 -0.5111244 -0.8658693 -0.26096144
-0.6490908 -0.16711596 -0.21644916 -0.45631075 1.1645023 -0.664138 -0.256164 -0.21110204
-0.16089487 -0.4174843 -0.48967618 0.03313589 -0.034573775 1.0245122 1.3836797 -0.33393052
-0.24449867 -0.21581078 -0.17545342 -0.2193867 1.13669 -0.48008454 1.0114007 0.11465766
00000000: 2c5f a3be 95f9 7fbe c40c 18bf 6ce1 9a3f
00000010: 1012 9fbe bdbb 1d3f 7037 873f 2a30 b13e
00000020: d695 773f ca3a 76bf 5aa9 69bf 51ae 7d3f
00000030: 1af1 84be c133 adbe 65dd 0bbf b2a0 71be
00000040: 6b6a 49be 88c1 76be 1e63 00bd c1d6 813f
00000050: dafc 8abe 6c82 8b3f 69b4 64be 9384 973f
00000060: f19b ccbe f1bf 7c3f 5541 3540 d389 863f
00000070: bfde 6cbe b335 6ebe 7e9d 94be 6dbf 9bbe
00000080: 4621 aebe 4959 be3d f3ee 7bbe dd33 893c
00000090: c073 98be 3f13 81be c5f4 fdbe c909 efbe
000000a0: bcd0 a5be 917e 01bf 1727 79be 5860 bebe
000000b0: 280b a2be ba86 23be 506c 5bbe bc5e 67be
000000c0: cec8 e0be 7bbf 6abd 245a a63d 6536 b9be
000000d0: 1ed9 25bf fb5c a33f a73b 52be acc6 29bf
000000e0: 8c1e 963f f624 ddbe fe24 25be 25ba 94be
000000f0: d6ee a5be e5e7 04bf 9e9d 87be 575d db3e
00000100: d986 8dbe 1f24 07bd ac2e a1be 62ba 9dbe
00000110: 070c 5abe 001e 4abe 7465 bc3d 9853 c73c
00000120: 44fd 50bf 7433 b0be bc98 3f3f b415 8dbe
00000130: f139 89be 5eb5 98be 76d2 a5be fabd 7fbe
00000140: 0704 27be b730 803f 4188 acbe 62b2 a7be
00000150: e91f 933f f5c7 a2be be21 883f 0092 5f3d
00000160: 0495 63be b57e a93c 3d35 46be d0ad 65be
00000170: 100b afbe 9d75 37be 3012 7b3f 7eeb a2be
00000180: c109 60be 2b02 7fbe 58f6 a6be 665b 80be
00000190: 424c c5be 5ad1 abbe 3ec1 ffbe b5e3 95be
000001a0: 04c0 06bf b20e 91be b231 afbe c859 99bd
000001b0: 6f7a 9e3f 0e51 e4be 440a 36be 0ff8 9ebe
000001c0: c4d9 98be a1ca f2be cc42 d0be af27 923c
000001d0: 864d 663d 39c3 883f adcc 8c3f 0807 3cbe
000001e0: 84ce b9be 6c66 60be a829 9abe 43b3 80be
000001f0: 0495 933f ba89 c0be 9e25 8a3f c4cf 673e
00000200: 3ba3 cdbe 2d40 2ebe 8458 02bf 3938 de3f
00000210: e7f8 a1be 7cbb d53d a1b3 883f 536e 79be
00000220: 77cc 793f 8429 7bbf 885b 33bf 78f1 933f
00000230: 91c6 8cbe 5ad2 acbe 8061 91bf 4422 7dbe
00000240: 723f 31be 1823 c9be 05d7 97bd 5391 9a3f
00000250: 976e 8dbe 8899 913f 1a29 57be c1c8 683f
00000260: a251 35be 11f9 803f 2dd5 1d40 1265 8c3f
00000270: d621 3fbe 8f6b 72be 9e89 15bf 9a25 4fbe
00000280: 32fa 8fbe 2fda 5fbf 0c5d 47be e1d9 243d
00000290: 2d1f 89be b075 eebe 945d eebe 65d3 87be
000002a0: 794f 4bbe 38e1 3dbf 6d9d 75be 9a32 c6be
000002b0: d047 92be 532a acbe 8077 4abe 760b 9abe
000002c0: 550c 49be 9589 8a3d 65df 96bc e87b 34be
000002d0: d737 b8be 597e 4e3f 88bd a3be d1ea 37bf
000002e0: eb40 753f 3bbc 01bf fcbb 95be 6bb7 d6be
000002f0: b7f7 b2be fe22 1dbf 1b02 33be 3741 363f
00000300: a93d 9fbe 8fe8 c43e 48cc 9dbe 312b 14be
00000310: 5644 80be 6eb1 aebe 13d6 383f 8949 173d
00000320: ebaf 55bf 0198 71be 20c5 733f e261 9dbe
00000330: 3396 4fbe c7f4 92be d6d4 fcbe dcc4 82be
00000340: 8edd 49be 2edd 853f 6b60 11be 03d9 4dbe
00000350: f2f6 703f 4ca1 5dbe 30e2 a43f c904 653d
00000360: cd81 9cbe c64a e43b f43f 8bbe 9e7e 8bbe
00000370: a562 85be 9e65 b2be dd3d 8c3f 0838 83be
00000380: 67cf 8abe c16b 93be 1ca7 2ebe 8635 cabe
00000390: 4f81 4abe 0cd9 02bf 9ca9 5dbf bd9c 85be
000003a0: d12a 26bf 7220 2bbe d9a4 5dbe 90a1 e9be
000003b0: 690e 953f f304 2abf ee27 83be 222b 58be
000003c0: a0c1 24be 81c0 d5be d6b6 fabe 80b9 073d
000003d0: 3b9d 0dbd 3723 833f 6b1c b13f f1f8 aabe
000003e0: dc5d 7abe 80fd 5cbe 10aa 33be e8a6 60be
000003f0: 0f7f 913f a4cd f5be 9475 813f a3d1 ea3d

net.4.bias f4 [4]
-0.0311872 0.001789805 0.07045121 0.091417275
00000000: 4d7c ffbc e497 ea3a b948 903d fb38 bb3d
