results/dqn_agent.pt (torch, 75420 bytes, 6 tensors)

net.0.weight f4 [128, 8]
0	0x3e954717	0.291558
1	0xbd9a0268	-0.0751999
2	0xbe857145	-0.2606298
3	0xbdb503a6	-0.088385865
4	0xbf363f4f	-0.7119035
5	0xbf13f447	-0.5779461
6	0x3ebcf2c9	0.3690398
7	0x3ef2c55b	0.47416195
8	0x3e32fc13	0.17478971
9	0x3c0f4ff3	0.008747089
10	0x3f11e272	0.56986153
11	0x3b996764	0.0046815146
12	0xbde35176	-0.11099522
13	0xbef4510f	-0.47718093
14	0xbf0258bf	-0.50916666
15	0xbe014a18	-0.12625921
16	0xbd8c8fab	-0.0686334
17	0x3e6fc173	0.23413639
18	0xbeac0082	-0.33594137
19	0x3e4aa0f7	0.19787966
20	0x3ec690fe	0.38782495
21	0x3f332335	0.69975597
22	0xbe5177bd	-0.20455833
23	0xbf87ec50	-1.0618992
24	0x3f1d6238	0.61477995
25	0x3f646f2a	0.8923212
26	0x3ed71fa3	0.42016324
27	0xbe60c964	-0.21951824
28	0x3f97bb59	1.1854049
29	0x3dfabdb4	0.12243214
30	0xbed9fa43	-0.42573747
31	0xbe82383f	-0.25433537
32	0xbefc53fe	-0.4928283
33	0xbe804c0e	-0.25058025
34	0x3e1dcd62	0.15410379
35	0x3e0d849f	0.13820122
36	0x3f392ecd	0.7233704
37	0x3f170e85	0.5900653
38	0x3eb86cb7	0.36020443
39	0xbf22849a	-0.63483584
40	0x3cdf1ed1	0.027236374
41	0x3eace2f8	0.33766913
42	0x3df6e3a5	0.120551385
43	0x3f2e8e19	0.68185574
44	0xbec7acee	-0.38999122
45	0xbe84f4b8	-0.25967956
46	0xbd898cc7	-0.06716304
47	0xbf12caac	-0.573405
48	0xbf09a8b8	-0.5377307
49	0xbec13ef0	-0.3774333
50	0xbdf6ee08	-0.120571196
51	0xbf8edff1	-1.1162091
52	0xc000c4e9	-2.0120184
53	0xbdb6edc4	-0.08932069
54	0x3ea725e1	0.32646087
55	0xbee548b4	-0.4478203
56	0xbe3f868b	-0.18703668
57	0x3f17b7ba	0.5926472
58	0xbdc7ef90	-0.0976249
59	0x3e518e34	0.20464402
60	0xbe1911b2	-0.14948156
61	0x3b977b38	0.004622843
62	0x3e750fbe	0.23931786
63	0xbedf0013	-0.43554744
64	0x3d9957d9	0.07487459
65	0x3e8d6797	0.27618095
66	0x3ebf6420	0.37381077
67	0x3d605065	0.05476417
68	0xbd542578	-0.051793545
69	0x3dfd4f38	0.123686254
70	0xbe257aef	-0.16160177
71	0x3f2d4090	0.6767664
72	0x3e36eb4d	0.17863198
73	0xbc118b03	-0.008883241
74	0xbdcb0e1c	-0.099148005
75	0xbf066805	-0.5250247
76	0x3e4fbd32	0.20287016
77	0xbebbdc45	-0.3669149
78	0x3d889504	0.066690475
79	0x3e93cef2	0.28868824
80	0x3edde7a6	0.43340796
81	0xbf04744e	-0.51739967
82	0xbe278c87	-0.163622
83	0xbe878e7b	-0.2647589
84	0x3f095983	0.5365221
85	0xbd9b8abd	-0.075948216
86	0x3eb69022	0.3565684
87	0x3eb913d6	0.36147946
88	0xbde6c463	-0.112679265
89	0x3bcd57a8	0.006266553
90	0x3e84a6f4	0.25908625
91	0x3e929a43	0.28633317
92	0xbe291cbb	-0.16514866
93	0xbe7b53df	-0.24543713
94	0x3ea03328	0.3128903
95	0xbf1e6a0f	-0.6188058
96	0xbead2d80	-0.33823776
97	0xbe20f861	-0.15719749
98	0x3ee0f014	0.43933165
99	0x3aca9bb0	0.0015457775
100	0x3c0276e2	0.007962914
101	0xbf16c27d	-0.58890516
102	0xbf866c1d	-1.0501744
103	0x3e94361a	0.28947526
104	0xbe4984d7	-0.1967958
105	0xbe48cc46	-0.19609174
106	0x3e82a1af	0.2551398
107	0xbd838b7e	-0.064230904
108	0xbef35af6	-0.47530335
109	0xbed9595b	-0.42450985
110	0xbf851b5b	-1.0398973
111	0xbe0f4ffe	-0.13995358
112	0x3f0d9063	0.5529844
113	0xbdb777d1	-0.089584
114	0x3f618557	0.88094085
115	0x3e38f8fe	0.18063733
116	0xbecde4e2	-0.40213686
117	0x3e66cb89	0.2253858
118	0x3e6e3a21	0.23264362
119	0xbe135652	-0.14388397
120	0xbe8155f0	-0.25260878
121	0x3f265e52	0.6498767
122	0xbd446342	-0.047946222
123	0xbf599400	-0.84991455
124	0xbe54e9c5	-0.20792301
125	0x3e7db082	0.24774364
126	0x3e49d5fb	0.19710533
127	0x3e87c35e	0.2651624
128	0x3edce789	0.43145397
129	0xbe2f8f64	-0.17144543
130	0x3ea45dcb	0.32102808
131	0x3e5d41f8	0.21607196
132	0xbf2b8824	-0.6700461
133	0xbe4a0f37	-0.19732367
134	0xbe6ef189	-0.23334326
135	0x3ef35b2b	0.47530493
136	0xbebd071f	-0.36919495
137	0xbea11b7a	-0.31466275
138	0xbee5cfe7	-0.4488518
139	0xbf7d5ac6	-0.98966634
140	0x3eaa848a	0.33304244
141	0x3ea18064	0.31543267
142	0x3e080dc5	0.13286503
143	0x3edce69c	0.4314469
144	0x3dc34b4a	0.095358446
145	0x3e0e5bff	0.13902281
146	0xbeec04ff	-0.46097562
147	0xbf6024a9	-0.8755594
148	0x3ea8d2a6	0.32973212
149	0x3e8aeed9	0.2713535
150	0xbf73a6f2	-0.95176613
151	0xbe5c0100	-0.21484756
152	0xbf4a0a2f	-0.7892179
153	0x3ed0cf3e	0.40783113
154	0xbed0b495	-0.40762773
155	0xbfd439fb	-1.6580194
156	0x3f8d84ff	1.1056212
157	0xbde598b8	-0.112107694
158	0xbe7f69a6	-0.24942645
159	0x3f196e23	0.5993368
160	0xbe2eb4da	-0.17061177
161	0x3f350c36	0.7072176
162	0xbf8ebc6e	-1.1151254
163	0xbdc3f966	-0.09569053
164	0x3e42dba0	0.19029093
165	0x3e0ec4ac	0.13942212
166	0x3d47a4a5	0.048741
167	0x3f06ae00	0.5260925
168	0xbeca3b61	-0.39498428
169	0x3f174220	0.59085274
170	0xbf0cbc26	-0.5497459
171	0x3f548cf4	0.8302758
172	0x3f44668e	0.76718986
173	0xbdacb68d	-0.08433256
174	0x3e85bb31	0.26119378
175	0xbdb58627	-0.08863478
176	0x3eb57e17	0.3544776
177	0x3ea2e8c9	0.31818226
178	0x3d7a8949	0.06116608
179	0x3f01cee6	0.50706327
180	0xbf2486fd	-0.64268476
181	0xbf15afbf	-0.5847129
182	0xbf7b43ee	-0.9815053
183	0xbe02d2a6	-0.12775669
184	0x3edeed03	0.435402
185	0x3f1cb9bf	0.61220926
186	0x3e935b74	0.2878071
187	0xbee44194	-0.44581282
188	0x3e6e8c8c	0.23295802
189	0x3eaa9505	0.33316818
190	0xbf1b75f3	-0.6072685
191	0xbf2bb7bc	-0.6707723
192	0x3e82a6b4	0.2551781
193	0xbf694fef	-0.91137594
194	0x3deda8dd	0.11604474
195	0x3ed6ac03	0.4192811
196	0xbe9f8529	-0.3115628
197	0xbed20dcd	-0.41026154
198	0x3e56df9f	0.20983742
199	0x3f1bf3dc	0.60918975
200	0x3ef54340	0.4790287
201	0xbf4417b1	-0.7659865
202	0x3e8fc8fa	0.2808302
203	0xbf5ed22c	-0.87039447
204	0x3f01cdba	0.5070454
205	0x3ecae73c	0.39629543
206	0xbe4c14fa	-0.19929877
207	0x3e12d773	0.1434
208	0xbe4df414	-0.2011264
209	0xbe17098e	-0.14749739
210	0x3f4b04ab	0.79304
211	0x3f74ade4	0.95577836
212	0xbec68235	-0.38771215
213	0x3f0d7a30	0.5526457
214	0xbd0516a9	-0.032492314
215	0xbf8c7cf3	-1.0975631
216	0x3dd0e0df	0.10199141
217	0x3f00bad5	0.50285083
218	0x3abab90d	0.0014245823
219	0xbe8beb0f	-0.27327773
220	0xbe21d52f	-0.1580398
221	0x3e58e111	0.21179606
222	0x3ef617ab	0.48064932
223	0xbcbb2b06	-0.022847664
224	0xbf093776	-0.5360025
225	0x3ec08432	0.37600857
226	0x3e2c70c8	0.16839898
227	0xbc8cc4ac	-0.017183624
228	0x3dc2434f	0.09485494
229	0x3f1161c8	0.5678983
230	0x3e84e968	0.25959325
231	0xbf19e8e6	-0.60121
232	0x3f2b40c0	0.66895676
233	0x3ed697f4	0.41912806
234	0xbec11b8a	-0.37716323
235	0xbeba0350	-0.36330652
236	0x3eaafb2c	0.33394754
237	0x3f07c05d	0.530279
238	0x3da67d17	0.08129328
239	0x3c26b79c	0.010175612
240	0x3e879d5d	0.26487246
241	0xbf0b5c40	-0.5443764
242	0x3e258eae	0.16167709
243	0xbc93473b	-0.017978301
244	0xbf50cb8d	-0.81560594
245	0xbeda0f7e	-0.42589945
246	0xbc835823	-0.016033238
247	0x3ea4c107	0.32178518
248	0x3eb9280b	0.36163363
249	0xbdbb6347	-0.09149795
250	0x3e1259d1	0.14292075
251	0x3e75bf7f	0.23998831
252	0xbe4dbd7c	-0.20091814
253	0xbf194f60	-0.5988674
254	0xbe7c2e58	-0.24627054
255	0xbe0f977e	-0.14022633

net.0.bias f4 [128]
0	0x3d168a61	0.036753062
1	0xbecd75ec	-0.4012903
2	0x3d82de4f	0.06390058
3	0x3d2fccbb	0.042919856
4	0x3f003e1b	0.50094765
5	0x3ea96a2d	0.33088818
6	0x3ebf3d6e	0.37351555
7	0x3f3b151e	0.730791
8	0x3f197e24	0.599581
9	0x3f716bf7	0.94305366
10	0xbe151594	-0.14559013
11	0x3f365f04	0.7123873
12	0xbecb5977	-0.39716694
13	0x3ec81e22	0.3908549
14	0x3f01679b	0.50548714
15	0x3f6583bd	0.8965414
16	0x3dea5d53	0.114435814
17	0xbeb50b68	-0.35360265
18	0x3e4c7663	0.19967036
19	0x3e32be45	0.17455395
20	0xbe99b8a7	-0.3002369
21	0x3e8c9e5d	0.27464572
22	0x3e248cf1	0.1606939
23	0x3f452184	0.77004266
24	0x3eb814cb	0.35953364
25	0xbecaa958	-0.39582324
26	0x3e84df32	0.25951535
27	0x3f1f4388	0.6221242
28	0xbf082cce	-0.53193367
29	0x3e0b83a4	0.13624436
30	0x3e91206f	0.28345057
31	0xbef30965	-0.47468105
32	0x3f407233	0.75174254
33	0xbe7a5da6	-0.24449787
34	0xbe58d676	-0.2117556
35	0x3e9a6380	0.30154037
36	0xbe0bb416	-0.13642916
37	0xbf07e2a4	-0.530802
38	0x3e8b24c2	0.2717648
39	0x3e9b2d6c	0.30308092
40	0x3eaa4900	0.3325882
41	0xbede1d81	-0.43381885
42	0x3f5f2532	0.8716613
43	0x3e98e284	0.29860318
44	0xbec21dcc	-0.37913358
45	0x3edbed04	0.42954266
46	0x3f10bd00	0.5653839
47	0x3eadfd27	0.33982202
48	0x3f01df4d	0.50731355
49	0xbddd4106	-0.10803418
50	0xbe853a9b	-0.26021275
51	0x3efe50b7	0.49670956
52	0xbf65f673	-0.89829177
53	0x3f50c8cf	0.8155641
54	0x3e4feecb	0.20305936
55	0x3edce51a	0.4314354
56	0xbedd644b	-0.4324058
57	0x3ecdd4b0	0.4020133
58	0x3f804671	1.0021497
59	0x3f69e1f3	0.91360396
60	0x3ee5faaa	0.44917804
61	0x3e2dae8e	0.16961119
62	0x3efd7256	0.49501294
63	0xbd9522c3	-0.07282021
64	0x3f0c718e	0.5486077
65	0x3e9d510c	0.30725896
66	0x3f4c6ec6	0.79856527
67	0xbf2d844b	-0.6777999
68	0xbe508409	-0.20362867
69	0x3ead21aa	0.33814746
70	0x3f63c491	0.8897181
71	0x3e23e619	0.16005744
72	0xbf08e839	-0.53479344
73	0x3eb281a1	0.34864524
74	0xbede8018	-0.43457103
75	0x3e9765ba	0.295698
76	0x3ec9f83b	0.39447197
77	0xbee7f424	-0.45303452
78	0x3e262b14	0.1622737
79	0x3f1a7dc7	0.6034817
80	0x3e7e897f	0.24857138
81	0xbdd83271	-0.10556496
82	0xbeb8637e	-0.36013407
83	0x3ce2e0c5	0.02769507
84	0x3c81c54c	0.015841149
85	0xbde70a9b	-0.1128132
86	0x3f125421	0.5715962
87	0x3bca2bfb	0.0061697937
88	0x3e88466b	0.26616225
89	0x3e86d864	0.26336968
90	0xbe1673b4	-0.14692575
91	0x3e2dd99e	0.16977546
92	0xbddda852	-0.1082312
93	0x3db5cb2f	0.08876645
94	0xbdc2d564	-0.09513357
95	0x3f55d9f1	0.8353568
96	0xbebe6254	-0.37184393
97	0xbf5e84f6	-0.8692163
98	0x3f339bd0	0.70159626
99	0x3f67867a	0.9043957
100	0xbf155381	-0.5833054
101	0xbd0b9f0b	-0.034087222
102	0x3f3b0a4f	0.73062605
103	0xbf0d8e5f	-0.55295366
104	0xbdf0ce9e	-0.11758159
105	0x3f295ca5	0.6615699
106	0xbf57edbe	-0.8434714
107	0x3f4684d1	0.7754641
108	0x3ec5cdcb	0.3863357
109	0x3f54888f	0.8302087
110	0xbe952064	-0.29126275
111	0x3f08ae2a	0.53390753
112	0xbebe53a7	-0.37173197
113	0x3e29d8b2	0.16586569
114	0xbe357a9d	-0.17722555
115	0x3f26a9ab	0.6510264
116	0x3f3f60dd	0.74757177
117	0x3bbd3606	0.0057742624
118	0x3f736076	0.9506906
119	0x3f554c59	0.8331962
120	0x3d686edc	0.05674635
121	0xbec8c548	-0.39213014
122	0xbe7a6a6a	-0.24454656
123	0x3ef660ff	0.48120877
124	0xbee6a633	-0.45048675
125	0xbeec33a2	-0.46133143
126	0x3eecbb3b	0.46236596
127	0xbceae122	-0.028671805

net.2.weight f4 [128, 128]
0	0x3ea2dbf3	0.31808433
1	0xbf8d4803	-1.1037601
2	0xbe70b8ac	-0.23507947
3	0x3d7d89cf	0.061899003
4	0x3eb2c0ac	0.34912622
5	0x3e83cd04	0.25742352
6	0x3d8174ce	0.06321107
7	0xbd809a23	-0.06279399
8	0xbd4c8a40	-0.049936533
9	0x3e401bb3	0.18760566
10	0x3e166db9	0.14690293
11	0xbdb06ac0	-0.08614111
12	0x3f13e257	0.5776724
13	0x3e8d09b0	0.27546453
14	0x3e8400f7	0.25781986
15	0x3e13b4e6	0.14424476
16	0x3e80a993	0.25129375
17	0x3ec7c70a	0.39019042
18	0x3f0199e0	0.5062542
19	0x3e72a34e	0.23695108
20	0x3ec46445	0.3835775
21	0x3eac8521	0.3369532
22	0x3daf857c	0.08570382
23	0xbd328461	-0.043583278
24	0xbf5f2703	-0.871689
25	0x3f18df7f	0.5971603
26	0xbea427e1	-0.32061675
27	0x3e3b3a9a	0.18284073
28	0x3e868203	0.26271066
29	0xbecc333c	-0.3988284
30	0x3e86b7e3	0.2631217
31	0x3f047e93	0.51755637
32	0x3e1626f9	0.14663304
33	0xbefa5c56	-0.48898572
34	0x3ed7014a	0.4199317
35	0x3e36a729	0.17837204
36	0xbe94ca01	-0.29060367
37	0x3ef46837	0.4773576
38	0x3e00f980	0.12595177
39	0x3eb6b570	0.356853
40	0x3e00557f	0.12532614
41	0x3f2a0319	0.66410977
42	0xbc055fcd	-0.0081405165
43	0x3ddd48ed	0.10804925
44	0x3f6f7e16	0.93551767
45	0x3e9486f9	0.29009226
46	0x3e26feaf	0.16308092
47	0x3e5e5af8	0.2171439
48	0xbe51f3c4	-0.20503145
49	0xbeb46923	-0.35236463
50	0x3f040cd2	0.5158206
51	0x3e01df60	0.12682867
52	0x3f182cc1	0.5944329
53	0x3da6f4b4	0.08152142
54	0xbdf8b5fe	-0.12144087
55	0x3dd6939f	0.10477375
56	0xbe8048d9	-0.25055578
57	0x3eaf9fc5	0.34301582
58	0x3df16fa3	0.11788871
59	0x3dcc5a2f	0.09978139
60	0x3cec51e7	0.028847648
61	0xbef2edbc	-0.47447002
62	0x3e75b0f8	0.2399329
63	0xbf26908b	-0.65064305
64	0xbe38e987	-0.18057834
65	0x3e5167a3	0.2044969
66	0x3e2b7976	0.16745552
67	0x3e36661d	0.1781239
68	0x3e7cfb07	0.24705134
69	0x3eaa7dc3	0.33299074
70	0x3e26bc3c	0.16282743
71	0x3e4e65c3	0.20156007
72	0x3f4b70b4	0.79468846
73	0x3c1388da	0.009004796
74	0xbe08f98c	-0.13376445
75	0x3ded8469	0.11597521
76	0x3ec85fa1	0.3913546
77	0x3ee60fe7	0.44934008
78	0x3f1e15bb	0.6175191
79	0xbe06c884	-0.13162428
80	0x3f1624dd	0.5865
81	0x3ebf6533	0.37381896
82	0x3f04f4a9	0.5193582
83	0x3d7f2f7d	0.062301148
84	0x3e918206	0.28419513
85	0x3e8b9b0f	0.27266738
86	0x3e4b4af0	0.19852805
87	0xbf96f4c1	-1.1793443
88	0xbec7654d	-0.38944474
89	0x3e758b7a	0.23978987
90	0xbf1476c0	-0.579937
91	0x3eacb200	0.33729553
92	0x3ebcffba	0.36913854
93	0x3e770000	0.24121094
94	0x3ea617f5	0.32440153
95	0x3e433c43	0.19065957
96	0x3f217c9e	0.63080776
97	0xbdafed5f	-0.08590197
98	0x3e761921	0.24033023
99	0x3e70755c	0.23482269
100	0x3dc796a7	0.097455315
101	0x3dc47f25	0.095945634
102	0x3dbc5377	0.09195607
103	0x3f12fbc3	0.5741541
104	0x3eb7d7d4	0.3590685
105	0x3d2d12b9	0.042254183
106	0x3f6929c1	0.91079336
107	0x3e60f475	0.21968253
108	0x3e6603ea	0.2246243
109	0x3e48a594	0.19594413
110	0x3eb74da9	0.35801437
111	0x3e083d92	0.13304737
112	0x3e52527c	0.20539278
113	0x3f19da65	0.6009887
114	0x3ec1bcde	0.37839407
115	0x3e9e8ca3	0.30966672
116	0x3e48b873	0.19601612
117	0x3ef9034a	0.48635322
118	0x3e24248d	0.16029568
119	0xbd824a13	-0.06361785
120	0x3db4fbc2	0.088370815
121	0x3f5da941	0.86586386
122	0x3ecf40f3	0.4047924
123	0xbdb2b052	-0.08725037
124	0xbeb63c16	-0.35592717
125	0xbf5073fa	-0.81426966
126	0x3e1d3fef	0.1535642
127	0xbe2c5721	-0.16830112
128	0xbce5e022	-0.028060976
129	0x3ef67eec	0.4814371
130	0xbfac3605	-1.3453985
131	0x3ea2061c	0.31645286
132	0xbf5b0f96	-0.8557066
133	0xbfb4167e	-1.4069364
134	0x3efe8574	0.49711192
135	0xbd116f5f	-0.035506602
136	0xb8a8f535	-8.0565376e-05
137	0x3e528d00	0.205616
138	0x3e8434f8	0.25821662
139	0x3c2538bb	0.010084326
140	0xbf1bde12	-0.6088573
141	0x3ccde0f2	0.025131676
142	0xbd85afd7	-0.065276794
143	0x3ea51d3f	0.32248875
144	0xbec90e98	-0.39268947
145	0xbe7f8e16	-0.24956545
146	0xbe07eb2f	-0.13273309
147	0x3e34126d	0.17585154
148	0xbe2d57fa	-0.16928092
149	0xbf3998f0	-0.7249899
150	0xbf2c37df	-0.6727275
151	0x3e97ebdd	0.29672137
152	0x3e9b419e	0.303235
153	0xbec62cf8	-0.38706183
154	0xbe8bedf7	-0.2732999
155	0x3e579b62	0.21055368
156	0xbf9fb63f	-1.2477492
157	0x3f2fbc07	0.6864628
158	0x3de26360	0.110541105
159	0xbebccc2a	-0.36874515
160	0x3eb8a7dc	0.36065567
161	0x3f358089	0.70899254
162	0x3de8c30f	0.113653295
163	0x3dc96567	0.09833794
164	0x3e9e5b80	0.30929184
165	0xbe9522d8	-0.29128146
166	0xbeb5d7e0	-0.35516262
167	0xbdd8a4d2	-0.10578312
168	0x3ed8c1b0	0.42335272
169	0xbf3cf85b	-0.7381646
170	0x3eaa61c8	0.33277726
171	0x3e9d3c29	0.3070996
172	0xbf53ae07	-0.8268742
173	0xbf386353	-0.72026557
174	0x3e18709d	0.14886709
175	0x3ed1f3f1	0.41006425
176	0xbb19aaed	-0.0023447827
177	0x3e010c03	0.12602238
178	0xbebe9cc2	-0.37228972
179	0x3ebc4b7a	0.36776334
180	0xbf28c19d	-0.6592043
181	0x3e759d3a	0.23985758
182	0x3ec4e9c6	0.38459605
183	0xbef768a0	-0.4832201
184	0x3ef8ece8	0.48618245
185	0x3e10b4ef	0.1413152
186	0x3c985e21	0.018599572
187	0x3cf5194e	0.029919293
188	0xc01b573a	-2.427199
189	0xbe991d81	-0.29905322
190	0xbf187fdd	-0.59570104
191	0xbf626e03	-0.88449115
192	0x3cff3f68	0.031158164
193	0x3e9364c1	0.28787807
194	0x3d0de050	0.03463775
195	0xbf43aca2	-0.7643529
196	0xbc6694fb	-0.014073606
197	0x3e157dc5	0.14598759
198	0x3ea3f4ba	0.3202265
199	0xbe03cf46	-0.12872037
200	0xbeb31266	-0.34974974
201	0xbe447603	-0.19185643
202	0x3f555bb5	0.8334306
203	0x3e0b1475	0.13582022
204	0x3d96fbd0	0.07372248
205	0xbf80cd31	-1.006262
206	0xbe756e48	-0.2396785
207	0x3e4b4bfa	0.19853202
208	0xbd7d27bf	-0.061805483
209	0x3e495fb1	0.1966541
210	0xbe8f41c0	-0.2797985
211	0xbd8e763d	-0.06956146
212	0xbdd75b0a	-0.10515411
213	0xbf275b9a	-0.6537415
214	0x3ea3bcc8	0.31979966
215	0x3eff460e	0.49858135
216	0x3f05287f	0.5201492
217	0x3ea2d658	0.31804156
218	0x3f0ce90a	0.5504309
219	0x3e477935	0.1947983
220	0xba515f3a	-0.0007986907
221	0xbf42320d	-0.7585762
222	0x3d859547	0.06522613
223	0x3da7b196	0.08188169
224	0xbf1e6ed6	-0.6188787
225	0xbe55369d	-0.20821615
226	0xbebb97f8	-0.3663938
227	0x3e576095	0.21032937
228	0xbf8a0ddc	-1.078548
229	0xbe0bb114	-0.13641769
230	0x3e6b97c5	0.23007114
231	0xbe2d1fb7	-0.1690663
232	0xbf08dcea	-0.5346209
233	0x3eb5faa8	0.35542798
234	0xbf6c2a8e	-0.92252433
235	0xbd9e55f9	-0.07731242
236	0x3ecabb86	0.39596194
237	0x3e11d4fd	0.14241405
238	0xbe64a022	-0.22326711
239	0x3dba2a81	0.09090138
240	0xbdee746b	-0.11643299
241	0x3dc84866	0.09779434
242	0xbf205781	-0.6263352
243	0x3bbcd2f1	0.005762451
244	0x3e4aef87	0.19817935
245	0xbeab9044	-0.33508503
246	0x3e690d17	0.227589
247	0x3c953375	0.018213013
248	0xbe80db87	-0.25167486
249	0xbf4d246b	-0.80133694
250	0xbece8eb3	-0.40343246
251	0x3dd485f6	0.103771135
252	0x3f71fd4b	0.9452712
253	0x3df43a60	0.11925197
254	0xbe18cf7f	-0.14922903
255	0x3eb1552b	0.3463529

net.2.bias f4 [128]
0	0x3dd86efc	0.105680436
1	0x3e652eb5	0.22381099
2	0x3e737288	0.23774159
3	0x3e5a817f	0.21338461
4	0xbe2b2ed9	-0.1671709
5	0x3e10679c	0.14102024
6	0x3de0a075	0.10968105
7	0xbd1cc486	-0.038273357
8	0x3d95799f	0.07298588
9	0xbd933202	-0.071872726
10	0x3e3b099a	0.18265381
11	0xbe9c5686	-0.30534762
12	0x3d6a5a18	0.057214826
13	0x3dd63167	0.104586415
14	0x3df73732	0.120710745
15	0x3e71ef56	0.23626456
16	0x3e6b0fb5	0.2295521
17	0x3dc17482	0.0944605
18	0x3cdba6e9	0.026812987
19	0x3eb6dc4d	0.3571495
20	0x3da261f4	0.07928839
21	0x3addef7c	0.0016932334
22	0xbbcbc604	-0.0062186737
23	0x3e80a815	0.25128236
24	0x3e863ae2	0.262168
25	0xbea1bff2	-0.31591755
26	0x3e580d04	0.21098715
27	0x3e106c3c	0.14103788
28	0xbd06816c	-0.03283827
29	0x3ea66576	0.32499284
30	0x3e8fb53c	0.28067958
31	0xbe051372	-0.12995699
32	0x3e1e0d81	0.15434839
33	0x3e8b263d	0.2717761
34	0x3db32d2c	0.0874885
35	0x3de034f5	0.10947601
36	0xbd584893	-0.052803587
37	0x3e2e07a0	0.16995096
38	0xbd510184	-0.051026836
39	0x3ebfc95e	0.37458318
40	0x3ec62b68	0.3870499
41	0x3e0e68b4	0.13907129
42	0x3cdd5a26	0.027020525
43	0xbe6a6864	-0.22891384
44	0x3ec39bcc	0.382048
45	0x3db59255	0.08865801
46	0x3e552685	0.20815475
47	0x3e30d47e	0.1726856
48	0x3d943478	0.0723657
49	0x3e800b19	0.25008467
50	0x3e1ada7c	0.15122408
51	0x3e216ba8	0.15763724
52	0x3d32ed50	0.04368335
53	0x3de9f14a	0.11422975
54	0x3e59c661	0.21267082
55	0xbd4e7e55	-0.05041345
56	0x3e444349	0.19166292
57	0x3e869a43	0.26289567
58	0x3ecb2488	0.3967631
59	0x3d422dce	0.047406964
60	0x3e0a7d51	0.13524367
61	0x3dc26ef4	0.09493819
62	0x3e104c21	0.14091541
63	0x3e4a30bb	0.19745152
64	0x3db3b8cd	0.08775482
65	0x3d83f2ef	0.0644282
66	0x3e0ef33d	0.13959976
67	0x3c52dd56	0.012870153
68	0xbdbe0d06	-0.09279828
69	0x3e26dc90	0.16295075
70	0x3cf7c8b5	0.030247072
71	0xbe318dec	-0.17339295
72	0xbdf9db9c	-0.1220009
73	0xbd98576f	-0.07438552
74	0x3e10e038	0.14148033
75	0xbea843e3	-0.32864293
76	0x3e7be78d	0.24600048
77	0x3e3cc014	0.18432647
78	0x3e9ddea9	0.3083394
79	0x3ea4c458	0.32181048
80	0x3ebfcab8	0.3745935
81	0x3dc16181	0.094424255
82	0x3e87ae7c	0.2650031
83	0x3e5f731c	0.21821254
84	0x3ef39c5a	0.47580224
85	0x3e232f66	0.1593605
86	0x3e0a9f71	0.13537385
87	0xbeafb104	-0.3431474
88	0x3ea6a8dc	0.32550704
89	0xbbbf5229	-0.0058386517
90	0x3ea517b2	0.3224464
91	0x3e52c0b3	0.20581321
92	0x3d92fe53	0.07177415
93	0x3dd1a133	0.102358244
94	0x3eb782d3	0.35841998
95	0x3e92c851	0.28668454
96	0x3dcbc49f	0.09949612
97	0x3d1f8a24	0.0389501
98	0x3e2dcf52	0.16973618
99	0x3e2fc9df	0.17166851
100	0xbe9af8ca	-0.30267936
101	0x3defa0ef	0.117006175
102	0x3ad17b96	0.0015982266
103	0xbdb532db	-0.088475905
104	0x3e0e6cf3	0.13908748
105	0x3e1b9f78	0.15197551
106	0x3d96dcd9	0.07366342
107	0x3df928ed	0.12166009
108	0x3d6d7554	0.05797322
109	0x3e8d44c5	0.2759153
110	0x3e88b12a	0.26697665
111	0x3e978297	0.2959182
112	0xbd48af3d	-0.048995245
113	0xbda230c9	-0.07919461
114	0x3e9f9a5b	0.3117245
115	0x3e7040fe	0.23462293
116	0xbd1eeea0	-0.03880179
117	0x3ec2a0fb	0.38013443
118	0xbca0e266	-0.019639205
119	0x3e5d2a9f	0.2159829
120	0xbdcabb39	-0.09898991
121	0x3df019aa	0.11723645
122	0x3e3c7645	0.18404491
123	0x3e91f4f7	0.28507206
124	0x3e91ba30	0.28462362
125	0x3e50a1f1	0.20374276
126	0x3e9df585	0.3085138
127	0x3dde26e1	0.10847259

net.4.weight f4 [4, 128]
0	0xbe3cac1c	-0.1842503
1	0x3f61a191	0.88137156
2	0x3f3da566	0.74080503
3	0xbea1d6a5	-0.31609073
4	0xbf2f1b03	-0.6840059
5	0xbe9dde55	-0.30833688
6	0xbe72d00e	-0.23712179
7	0xbdc1e010	-0.09466565
8	0x3ef00d7d	0.4688529
9	0x3f9dde17	1.2333401
10	0xbe920a90	-0.28523684
11	0xbf534ed2	-0.82542145
12	0x3fb69f21	1.4267312
13	0xbe754908	-0.2395364
14	0xbe419c8d	-0.18907376
15	0x3efa5f67	0.4890091
16	0xbe7808e0	-0.24222136
17	0xbea9c6b3	-0.33159408
18	0xbe6c1932	-0.23056486
19	0x3efd2c72	0.49447972
20	0x3fb138db	1.3845476
21	0xbe8ce840	-0.27520943
22	0xbe0f1638	-0.1397332
23	0x3f38959b	0.7210328
24	0x3f206557	0.6265463
25	0xbf26efe9	-0.65209824
26	0x3fb5cae5	1.4202543
27	0xbe7db05a	-0.24774304
28	0x3fe95431	1.8228818
29	0x3f2696ab	0.6507365
30	0x3f17f136	0.59352434
31	0xbf800abe	-1.0003278
32	0xbe360d67	-0.1777855
33	0x3f033d69	0.5126558
34	0xbe7e9454	-0.2486127
35	0x3f152eab	0.58274335
36	0xbd9a45f2	-0.07532872
37	0x3f46d190	0.77663517
38	0xbcb28488	-0.021791711
39	0x3f4c3110	0.79762363
40	0x3f243f1a	0.64158785
41	0xbe5652e9	-0.20930065
42	0xbe1064d1	-0.14100958
43	0xbf8ddfb7	-1.1083897
44	0x3f3d0789	0.7383962
45	0x3f1cb1ec	0.6120899
46	0xbe5d8128	-0.216313
47	0xbe9d453d	-0.30716887
48	0xbe5f4c9b	-0.21806566
49	0x3f461785	0.7737964
50	0x3f31fe76	0.695289
51	0xbe377ecf	-0.17919467
52	0xbe043cad	-0.12913771
53	0xbe8f9761	-0.2804518
54	0xbe905f01	-0.28197482
55	0xbd641a42	-0.055689104
56	0xbea2a446	-0.31765956
57	0x3f2e110d	0.6799477
58	0x3f0be19f	0.54641145
59	0xbe9a1793	-0.3009611
60	0x3ec06eee	0.37584633
61	0x3f54ecc4	0.83173776
62	0xbe7bd097	-0.2459129
63	0x3f16108e	0.5861901
64	0xbe9473e1	-0.2899466
65	0x3dab90a7	0.083771996
66	0xbea79487	-0.32730505
67	0xbca343a4	-0.019929715
68	0xbf3b880b	-0.7325446
69	0xbea664fd	-0.32498923
70	0xbe607f21	-0.21923496
71	0xbf819697	-1.0124081
72	0x3f861922	1.047642
73	0x3f186944	0.5953562
74	0x3f04c497	0.5186247
75	0xbf8234d4	-1.0172372
76	0x3f1af5c6	0.6053127
77	0xbe758d60	-0.23979712
78	0x3f3a1002	0.72680676
79	0x3f03168f	0.51206297
80	0x3f2fdd3c	0.6869695
81	0xbdf7a3eb	-0.12091812
82	0x3f0c89a3	0.54897517
83	0xbe7d79d1	-0.247535
84	0x3f1dd488	0.6165242
85	0xbe7b0f31	-0.24517514
86	0x3d900a9d	0.07033274
87	0xbfcc2c23	-1.595097
88	0x3f32c68d	0.69834214
89	0x3f1343a2	0.57525074
90	0x3d9242ae	0.071416244
91	0xbe983601	-0.29728702
92	0xbe851db3	-0.2599922
93	0x3f91a41b	1.1378206
94	0x3f224f09	0.6340185
95	0x3f1ed3f0	0.6204214
96	0xbe89c246	-0.2690603
97	0x3c742508	0.014901407
98	0x3f30be64	0.69040513
99	0x3b99e167	0.0046960595
100	0xbf95507d	-1.1665188
101	0x3f2c31ec	0.67263675
102	0xbe692925	-0.22769602
103	0xbbcb8110	-0.006210454
104	0xbe91b5b0	-0.2845893
105	0xbe97b7c7	-0.29632398
106	0x3f0dd7cb	0.554074
107	0xbe97f3ea	-0.2967828
108	0xbdd155ce	-0.10221444
109	0x3f38360b	0.71957463
110	0xbeb7c368	-0.3589127
111	0x3f192478	0.5982127
112	0xbe237ab1	-0.15964772
113	0x3c187665	0.009305571
114	0x3f36997b	0.7132794
115	0x3f133002	0.5749513
116	0xbd97b169	-0.07406885
117	0x3f372c77	0.7155222
118	0x3d1a32f6	0.037646256
119	0x3f3773a3	0.7166082
120	0x3f577e01	0.8417664
121	0x3f3134e5	0.69221336
122	0xbeb97324	-0.36220658
123	0x3f25ddee	0.6479176
124	0x3f52f60d	0.82406694
125	0xbe87e303	-0.26540384
126	0x3f845241	1.0337602
127	0xbe2389c3	-0.1597052
128	0xbec0d122	-0.37659556
129	0x3f75368b	0.9578635
130	0x3f256575	0.64607936
131	0xbe529c5f	-0.20567463
132	0xbf54e4f4	-0.83161855
133	0xbe2f8762	-0.17141488
134	0xbe7c8539	-0.24660195
135	0x3e33f86b	0.17575233
136	0x3f1b033d	0.60551816
137	0x3fab42a4	1.3379712
138	0xbe83804f	-0.2568383
139	0xbe7680b4	-0.24072534
140	0x3fdb4eac	1.7133384
141	0xbec94607	-0.3931124
142	0xbd5b75c4	-0.053579107
143	0x3f026717	0.5093855
144	0xbeb9c655	-0.36284128
145	0xbeaa417e	-0.33253092
146	0xbe728096	-0.23681864
147	0x3f0edf49	0.55809456
148	0x3fc274ba	1.5191872
149	0xbdcbaa6a	-0.09944613
150	0xbe8b5603	-0.2721406
151	0x3f34b367	0.70586246
152	0x3f50858e	0.8145379
153	0xbe8abea7	-0.2709858
154	0x3f93e80c	1.155519
155	0xbe788163	-0.24268107
156	0x3fc37950	1.5271397
157	0x3ef93736	0.48674935
158	0x3f49dd4d	0.78853303
159	0xbf86a249	-1.0518275
160	0xbe732a10	-0.23746514
161	0x3f477f21	0.7792836
162	0xbeb776b4	-0.3583275
163	0x3f342445	0.7036784
164	0x3c2a92a8	0.010410942
165	0x3f762add	0.96159154
166	0x3d2f0855	0.042732555
167	0x3efffbb6	0.49996728
168	0x3f0ab881	0.5418778
169	0xbea0b4c3	-0.3138791
170	0xbdcc90e5	-0.09988574
171	0xbf3dfa02	-0.74209607
172	0x3f0e6e64	0.5563719
173	0x3e5dfe28	0.21678984
174	0xbea3a8ec	-0.31964815
175	0xbeadce8d	-0.33946648
176	0xbd56a4d9	-0.052403305
177	0x3f3fb2fa	0.7488247
178	0x3f21aa91	0.6315089
179	0xbeafb002	-0.3431397
180	0xbe6ecaf2	-0.23319605
181	0xbe8ccda2	-0.27500635
182	0xbeb7e3fa	-0.3591612
183	0xbc19b6f8	-0.009382002
184	0xbe48c68a	-0.19606987
185	0x3f33cc40	0.70233536
186	0x3f119d0e	0.5688027
187	0xbe61250e	-0.21986791
188	0x3e750946	0.23929319
189	0x3f2ca4a1	0.67438704
190	0xbea8c9eb	-0.3296655
191	0x3ec412cc	0.3829559
192	0xbea17991	-0.3153806
193	0xbd8b2cc9	-0.067956515
194	0xbeadbbda	-0.33932382
195	0x3db32f09	0.087492056
196	0xbef192f8	-0.4718244
197	0xbe70f405	-0.23530586
198	0xbe27712d	-0.16351767
199	0xbf2e772e	-0.68150604
200	0x3f6aa70c	0.91661143
201	0x3fa73c71	1.306532
202	0x3ea223c9	0.31667927
203	0xbec6565a	-0.38737756
204	0x3f33b78e	0.7020196
205	0xbed0fcca	-0.40817863
206	0x3f38d870	0.7220526
207	0x3f448924	0.7677176
208	0x3f321a30	0.6957121
209	0xbedf7b87	-0.4364893
210	0x3f3e82f8	0.7441859
211	0xbec46366	-0.38357085
212	0x3f1fe97d	0.6246565
213	0xbeb3d117	-0.3512046
214	0x3f51f3b7	0.82012504
215	0xbf566d61	-0.8376065
216	0x3f1ea1d8	0.61965704
217	0x3f800359	1.0001022
218	0x3f07a811	0.52990824
219	0xbea5dd92	-0.32395607
220	0xbe2b6ff9	-0.16741933
221	0x3f796723	0.97423
222	0x3f2025ff	0.6255798
223	0x3f2b10b2	0.6682235
224	0xbe95ab90	-0.29232454
225	0x3c104f5e	0.008807985
226	0x3f5b06cc	0.85557246
227	0x3efc5ef0	0.49291182
228	0xbf3b5da3	-0.73189753
229	0x3fa4a6e2	1.2863429
230	0xba1a38fa	-0.0005883124
231	0x3d1c81e4	0.03820981
232	0xbeabb98d	-0.33540002
233	0xbea92c52	-0.33041626
234	0x3f25ab77	0.6471476
235	0xbe52d1f4	-0.20587903
236	0xbe371053	-0.17877321
237	0x3f37f082	0.7185136
238	0xbea792a8	-0.32729077
239	0x3f26a1d2	0.6509067
240	0xbe1687e6	-0.14700279
241	0xbc60c8b1	-0.013719724
242	0x3f3bd144	0.7336619
243	0x3f3311aa	0.6994883
244	0xbdab12be	-0.08353184
245	0x3f53816f	0.82619375
246	0xbc483213	-0.01221897
247	0x3e97736e	0.29580253
248	0x3f663d44	0.89937234
249	0x3f26f04e	0.65210426
250	0xbed5c474	-0.41751444
251	0x3f4b95e4	0.7952559
252	0x3f28cc39	0.6593662
253	0xbe92cabb	-0.28670296
254	0x3fa4af90	1.2866077
255	0xbe62d5a7	-0.22151814

net.4.bias f4 [4]
0	0xbe765d0d	-0.24058934
1	0xbe33ce0b	-0.17559068
2	0x3c6fb5c3	0.014630738
3	0x3def8497	0.116952114
