results/dqn_agent.pt (torch, 41372 bytes, 6 tensors)

net.0.weight f4 [128, 8]
0	0x3e8bc6cc	0.27300107
1	0xbf9f6f10	-1.2455769
2	0xbf35f002	-0.7106935
3	0xbe9be343	-0.30446824
4	0x3f074748	0.5284314
5	0xbcc4bc02	-0.02401543
6	0x3e9f512d	0.3111662
7	0x3ea0e83c	0.3142718
8	0x3ec35d60	0.38157177
9	0xbeb1eb21	-0.34749702
10	0x3e37d09e	0.17950675
11	0x3e1bbeb1	0.15209462
12	0xbf259484	-0.6467974
13	0xbeee59db	-0.4655293
14	0x3cffcee4	0.031226583
15	0x3ec700ee	0.38867897
16	0xbe850068	-0.25976872
17	0xbd803e41	-0.06261874
18	0x3f103b87	0.5634083
19	0xbe4a27ed	-0.19741793
20	0xbedc2c98	-0.43002772
21	0xbf279eaf	-0.65476507
22	0x3edda7b0	0.43291998
23	0xbe122219	-0.1427082
24	0x3dcff9da	0.10155077
25	0xc000bc5b	-2.0114963
26	0xbeacdb56	-0.3376109
27	0xbf047327	-0.5173821
28	0xbe7f8668	-0.24953616
29	0xbdb20d1d	-0.086939074
30	0xbddf157e	-0.10892771
31	0x3eda479b	0.42632756
32	0x3e9b3771	0.30315736
33	0xbf061c7d	-0.5238722
34	0xbe6c2f79	-0.23064984
35	0xbf305946	-0.6888622
36	0x3f25ca18	0.64761496
37	0x3d116faa	0.03550688
38	0x3f00e79a	0.50353396
39	0x3ef329a6	0.47492713
40	0xbe11bace	-0.14231417
41	0xbfda7cb0	-1.7069302
42	0xbe96a62d	-0.29423657
43	0xbf359a22	-0.70938313
44	0x3f0ca786	0.5494312
45	0xbd525fc4	-0.05136086
46	0xbd16bd7e	-0.036801808
47	0x3eb18ace	0.34676212
48	0x3fb51edd	1.4150044
49	0x3fafb0bf	1.3725814
50	0x3eeb60e1	0.4597235
51	0x3e0ed2d9	0.1394762
52	0xbe94ce89	-0.29063824
53	0xbd97aec4	-0.07406381
54	0x3d95753e	0.07297753
55	0x3de61d9f	0.112361185
56	0x3e3736bc	0.17891973
57	0x3f3dd62f	0.74154943
58	0xbe667abd	-0.22507758
59	0xbee794c4	-0.45230687
60	0x3f09a256	0.5376333
61	0xbf6e31cc	-0.93044734
62	0xbec5b718	-0.38616252
63	0x3d9992ff	0.074987404
64	0x3eea9bf5	0.4582211
65	0xbecd8012	-0.40136772
66	0x3966d3a4	0.00022013352
67	0x3e052bee	0.13005039
68	0xbf0234a5	-0.5086158
69	0xba492e5b	-0.0007674449
70	0xbd0bb91b	-0.034112077
71	0x3f406ff7	0.75170845
72	0x3d0f8531	0.03503913
73	0x3f2edfc7	0.6831021
74	0xbdd371b7	-0.10324424
75	0x3d81cd57	0.063379936
76	0x3e1630da	0.14667073
77	0x3e751701	0.23934557
78	0x3ed79c07	0.42111227
79	0xbd84eb8a	-0.06490238
80	0x3f00def4	0.503402
81	0xbecfa979	-0.40558985
82	0x3d9859ad	0.07438979
83	0x3db08f52	0.08621086
84	0xbed25448	-0.41079926
85	0x3c76203e	0.015022336
86	0x3c870a32	0.016484354
87	0x3e41c6ba	0.18923464
88	0x3e293d76	0.16527352
89	0xbe800a39	-0.250078
90	0x3e10aeb9	0.14129151
91	0x3eb4d92a	0.35321933
92	0x3da81495	0.08207051
93	0x3f3dc0ba	0.741222
94	0x3f212597	0.6294798
95	0xbe56ce28	-0.2097708
96	0x3de1585a	0.1100318
97	0xbf0b0c9a	-0.54316103
98	0x3e648d2d	0.2231948
99	0xbf271393	-0.6526424
100	0x3f5e5f3f	0.86864084
101	0x3e9302df	0.28713128
102	0xbe8aed0e	-0.27133983
103	0xbf43f1e7	-0.7654099
104	0xbc1ca6f5	-0.00956129
105	0x3f044afb	0.5167691
106	0xbb0c13e8	-0.002137417
107	0x3d91a988	0.07112414
108	0xbecdaa31	-0.40168908
109	0xbf687790	-0.9080744
110	0x3ee66d65	0.45005336
111	0x3b8d678c	0.0043153223
112	0x3e36d486	0.17854509
113	0x3e9f7fee	0.3115229
114	0x3ec97f68	0.39355016
115	0x3d242942	0.04007841
116	0x3ef6976f	0.4816241
117	0x3f44fdb0	0.76949596
118	0xbf52940f	-0.8225717
119	0xbf0ae774	-0.5425942
120	0x3e3dd298	0.18537366
121	0x3eb695bc	0.35661113
122	0xbd8e14ba	-0.06937547
123	0x3ef64769	0.48101357
124	0x3ebc0cb8	0.36728454
125	0x3f292725	0.66075355
126	0x3f12baa6	0.5731605
127	0x3e124668	0.1428467
128	0xbe879e00	-0.26487732
129	0xbff25a58	-1.8933821
130	0x3f0f314f	0.55934614
131	0xbf316e5e	-0.6930903
132	0x3ca74ab6	0.020421367
133	0xbe65f28e	-0.22455809
134	0x3eb09b62	0.34493548
135	0xbefe9c89	-0.49728802
136	0x3f1ca0e3	0.61182994
137	0xbf47e755	-0.7808736
138	0x3e32ee13	0.1747363
139	0xbefea5c7	-0.49735853
140	0x3d09a921	0.03360856
141	0x3da85bd0	0.08220637
142	0x3f0d6fff	0.5524902
143	0xbd4e3546	-0.050343774
144	0x3c4dce93	0.012561458
145	0xbf35978d	-0.70934373
146	0x3f085254	0.5325062
147	0xbee6f5ae	-0.45109314
148	0xbecfa31c	-0.4055413
149	0x3e4a0b80	0.1973095
150	0x3ecbbdcd	0.39793244
151	0x3dfef8b4	0.1244978
152	0x3ef5658d	0.4792904
153	0xbf562b38	-0.83659697
154	0x3d834097	0.06408804
155	0xbc8d6a0f	-0.017262487
156	0xbf10ff9b	-0.56640023
157	0x3f4e3e39	0.80563694
158	0xbc9c1ddb	-0.019057205
159	0xbe3b4ee7	-0.18291818
160	0x3edcd5c8	0.43131852
161	0xbda0f52b	-0.07859262
162	0x3e896ca0	0.26840687
163	0xbf8e182b	-1.1101125
164	0xbe0f4c46	-0.1399394
165	0x3d93142b	0.07181581
166	0x3b3a55b6	0.0028432435
167	0x3e171047	0.14752303
168	0xbe1b8e82	-0.15191081
169	0x3d887e2b	0.0666469
170	0x3ee6c8d4	0.45075095
171	0xbf8b9993	-1.0906242
172	0x3e1ff2bb	0.15619938
173	0x3e8bee0d	0.27330056
174	0xbe023168	-0.1271416
175	0x3efffefc	0.49999225
176	0xbe11ac7a	-0.14225951
177	0xbec84085	-0.39111724
178	0x3ecb96ab	0.39763388
179	0xbf3d757a	-0.7400738
180	0xbe8a3352	-0.2699228
181	0x3ddffb79	0.109366365
182	0x3db0b36e	0.086279735
183	0xbe048732	-0.12942198
184	0x3d965449	0.07340295
185	0xbea86a41	-0.32893565
186	0x3dfeeaf6	0.12447159
187	0xbf54dede	-0.8315257
188	0xbf2ca23e	-0.6743506
189	0xbf16d94b	-0.5892531
190	0x3f1b3642	0.60629666
191	0x3e15d62d	0.14632483
192	0x3e5a61b7	0.21326338
193	0x3c832fe6	0.01601405
194	0xbe9a5b91	-0.30147985
195	0x3e9edf0b	0.31029543
196	0x3f1ad24e	0.6047715
197	0x3e6a1c4f	0.22862361
198	0x3f1c72d5	0.6111272
199	0x3e5a5eb2	0.21325186
200	0xbdc0ecbd	-0.09420154
201	0xbf18896d	-0.59584695
202	0x3e871c31	0.26388696
203	0x3fe3fdad	1.7811791
204	0xbdac54eb	-0.08414634
205	0x3dc033b7	0.09384864
206	0x3f2d07ea	0.675902
207	0x3e91761a	0.28410417
208	0xbe99570c	-0.29949224
209	0x3e9a2668	0.30107427
210	0x3d7297e8	0.0592269
211	0xbe8f1eb8	-0.27953124
212	0x3f61254f	0.87947553
213	0xbf5ed048	-0.8703656
214	0xbef1755c	-0.4715985
215	0x3d0c20fd	0.034211148
216	0xbf09e541	-0.5386544
217	0x3f73502f	0.95044225
218	0xbf05bb65	-0.52239066
219	0xbe741806	-0.23837289
220	0xbd9c7b36	-0.07640688
221	0xbcaa5c96	-0.020796102
222	0x3db40dae	0.08791672
223	0x3ec059b6	0.37568444
224	0xbebc2e8a	-0.36754256
225	0x3f9f3aa5	1.2439772
226	0x3f3b9472	0.73273385
227	0xbf5c6d95	-0.8610471
228	0x3e2855c7	0.16438971
229	0xbc80633f	-0.015672324
230	0x3ecf267b	0.40459046
231	0x3d28b3ea	0.041187204
232	0x3f4d7433	0.8025543
233	0xbeca2801	-0.39483646
234	0x3ee8974e	0.45427936
235	0xbe1ec84a	-0.15506092
236	0xbee4f735	-0.44719854
237	0xbd8d8bcf	-0.06911432
238	0xbd4250cb	-0.04744033
239	0xbf4c1707	-0.79722637
240	0x3ea73195	0.32655016
241	0xbf2f8529	-0.6856256
242	0x3e12561a	0.14290658
243	0xbee9d031	-0.4566665
244	0xbec511ed	-0.3849024
245	0x3f224a06	0.633942
246	0xbe9d12e3	-0.30678472
247	0xbf5ab6b7	-0.8543505
248	0x3e038fa2	0.1284776
249	0x3ec68299	0.38771513
250	0xbf41f6fd	-0.757675
251	0x3eb89567	0.36051485
252	0x3d883fdf	0.066528074
253	0xbe8e5324	-0.27797806
254	0xbb5caa04	-0.0033670673
255	0x3e2ca4a5	0.16859682

net.0.bias f4 [128]
0	0x3df00d0b	0.11721238
1	0x3ed7e91c	0.42170036
2	0xbf0de3cf	-0.55425733
3	0x3f16e91c	0.58949447
4	0x3f2f65cc	0.68514705
5	0x3ead323f	0.33827397
6	0xbe1df9dc	-0.15427345
7	0xbd57a0cb	-0.05264358
8	0x3f030573	0.5118019
9	0x3f78ac3f	0.97137827
10	0x3ef6f51b	0.48233876
11	0xbdb43dea	-0.08800872
12	0x3f17e77e	0.59337604
13	0xbda46cd9	-0.080285735
14	0xbeeeedbd	-0.46665755
15	0x3d4a804c	0.04943876
16	0x3de9d11b	0.11416837
17	0xbdc06c53	-0.09395661
18	0xbe75a9f4	-0.23990613
19	0xbedb6a5c	-0.42854583
20	0xbe55421d	-0.20826001
21	0xbe33ffdc	-0.17578071
22	0x3f20cad9	0.6280952
23	0xbe8a92e6	-0.270652
24	0x3ead9428	0.33902097
25	0xbbe3cad9	-0.0069516716
26	0x3c50acdb	0.012736524
27	0x3f3e01cf	0.7422151
28	0x3e8c63d3	0.2741991
29	0xbe233f32	-0.15942076
30	0xbedd9bdd	-0.43282977
31	0x3eb2ffd8	0.34960818
32	0x3ebed653	0.3727289
33	0x3ca3f80b	0.020015737
34	0xbdd49a77	-0.10381024
35	0xbf3e02e6	-0.7422317
36	0x3e775af0	0.24155784
37	0x3db7f8b6	0.08982985
38	0x3d868857	0.065689735
39	0x3e521193	0.20514517
40	0xbd94f845	-0.07273916
41	0x3e28ca91	0.16483523
42	0xbe7faf89	-0.24969305
43	0x3ea89f6c	0.3293413
44	0x3dc63ad9	0.09679193
45	0x3ee68017	0.450196
46	0x3e7e4002	0.24829105
47	0xbf3f3867	-0.7469544
48	0x3f3ce5e7	0.73788303
49	0xbe4e6106	-0.20154199
50	0x3eb3175c	0.3497876
51	0xbdcfb386	-0.10141663
52	0xbeb4f5d0	-0.3534379
53	0xbf3341ea	-0.7002245
54	0x3ef24b98	0.47323298
55	0xbec93a92	-0.39302498
56	0x3ed10b73	0.40829048
57	0x3e9b5c7e	0.30344003
58	0xbf0119b8	-0.5042987
59	0x3eeaf601	0.4589081
60	0x3ee8e6bd	0.4548854
61	0x3ec90d71	0.39268067
62	0x3f99d7c8	1.2018976
63	0x3ebc3b28	0.36763883
64	0xbdc5efa1	-0.09664846
65	0xbec9f236	-0.39442605
66	0xbf0117de	-0.50427043
67	0x3ece23aa	0.40261585
68	0x3f5f6a13	0.8727123
69	0x3f8701d4	1.0547433
70	0xbe1e2ef3	-0.15447597
71	0x3f8d4f5d	1.1039845
72	0x3eacba0b	0.3373569
73	0xbe266c41	-0.16252233
74	0xbe5a0a70	-0.21293044
75	0x3f734ddd	0.95040685
76	0x3ee15e39	0.440172
77	0xbeeabfcc	-0.45849454
78	0x3e1e6954	0.15469867
79	0x3f8a4bd5	1.0804392
80	0xbe9212a1	-0.28529838
81	0xbed0238b	-0.40652117
82	0xbd5ed882	-0.054405697
83	0x3d965280	0.073399544
84	0x3f943eed	1.1581703
85	0xbdf81087	-0.12112527
86	0x3eec8a6b	0.46199355
87	0xbe7ab795	-0.24484093
88	0x3eb60823	0.35553083
89	0x3e927580	0.2860527
90	0xbe4f6700	-0.20254135
91	0x3e22ff62	0.15917733
92	0x3ed17fe1	0.40917876
93	0x3edfb5f1	0.43693498
94	0x3ee4f416	0.44717473
95	0x3f16819d	0.58791524
96	0xbe33f74f	-0.1757481
97	0x3eed0ef3	0.46300468
98	0x3e54f2d8	0.20795763
99	0x3ef87347	0.4852545
100	0x3e20752d	0.15669699
101	0x3ec063d6	0.3757617
102	0x3f13314e	0.5749711
103	0x3f006ebe	0.5016898
104	0x3f187f51	0.5956927
105	0xbf28dc10	-0.6596079
106	0xbf1b1be2	-0.6058942
107	0xbc98a096	-0.01863126
108	0x3e250179	0.16113843
109	0xbe9fb9a3	-0.31196317
110	0xbeeb0f25	-0.45909992
111	0xbe39bd2e	-0.18138573
112	0xbe9f154b	-0.31070933
113	0xbe996346	-0.29958552
114	0x3f169be8	0.58831644
115	0xbe415e99	-0.18883742
116	0xbca3f76b	-0.020015439
117	0xbeee451c	-0.465371
118	0xbece47ec	-0.40289247
119	0x3e86b9c8	0.26313615
120	0x3ec48eb8	0.38390136
121	0x3e215d86	0.15758333
122	0x3e8d527a	0.27601987
123	0x3f0e0a6a	0.5548464
124	0x3ef1d13d	0.4722995
125	0xbe28194e	-0.16415903
126	0xbed466c0	-0.41484642
127	0xbe874648	-0.26420808

net.2.weight f4 [64, 128]
0	0xbd3835fd	-0.044973362
1	0x3e9e0e26	0.3087017
2	0x3ecbfd0a	0.3984149
3	0xbe5beb44	-0.21476465
4	0x3b1117b0	0.0022139363
5	0xbda02c50	-0.07820952
6	0x3f24e8a1	0.64417464
7	0xbe505f3a	-0.20348826
8	0x3e77ba54	0.24192172
9	0x3e3cb7a3	0.18429427
10	0x3da8b498	0.082375705
11	0x3e1dfaf8	0.15427768
12	0xbe16f5ca	-0.14742199
13	0x3e803a27	0.25044367
14	0xbe3a7703	-0.18209462
15	0x3e638ba4	0.22221237
16	0xbe90228b	-0.28151354
17	0x3ef4b125	0.477914
18	0x3e73363e	0.2375116
19	0xbf8eebbd	-1.1165692
20	0x3e3be893	0.18350439
21	0xbcbe9c06	-0.023267757
22	0xbe33eaba	-0.1757001
23	0x3e523858	0.20529306
24	0x3eb105a6	0.34574622
25	0xbf6ef8aa	-0.9334818
26	0x3d8ad72e	0.067793235
27	0x3d8cc9ff	0.06874465
28	0xbcd89eae	-0.026442852
29	0x3f7258a2	0.9466649
30	0xbf4b9971	-0.7953101
31	0x3e341920	0.1758771
32	0x3e3bde35	0.18346484
33	0xbec7e1c8	-0.39039445
34	0x3e2a914a	0.16656986
35	0x3e698f4f	0.22808574
36	0x3e196fda	0.14984074
37	0x3f00995e	0.5023402
38	0x3e6f8e61	0.23394157
39	0x3b8c63ab	0.0042843423
40	0xbfbcf85f	-1.4763297
41	0x3e18f879	0.14938535
42	0x3efb6547	0.49100706
43	0x3e82a4dc	0.25516403
44	0xbda938be	-0.08262776
45	0x3e83f91d	0.25775996
46	0x3f6c84e4	0.92390275
47	0x3fa7f1b7	1.312064
48	0xbe74398b	-0.23850076
49	0x3e6aff89	0.22949041
50	0x3e3bf80b	0.1835634
51	0x3eafb922	0.34320933
52	0x3f295e0b	0.66159123
53	0x3e96bdd6	0.29441708
54	0x3d9c34f4	0.076272875
55	0x3e0ceb01	0.13761522
56	0xbd9d8f1c	-0.076933116
57	0x3e27fd98	0.16405332
58	0x3f85726d	1.0425545
59	0xbfaade35	-1.3349062
60	0x3de4550b	0.11149033
61	0xbe12b83a	-0.1432809
62	0xbcfc741e	-0.030817088
63	0x3e4e76f8	0.2016257
64	0x3ea9f38c	0.33193624
65	0x3f0a5dcc	0.5404937
66	0x3f06b0eb	0.52613705
67	0x3e958c30	0.29208517
68	0xbdd1cce6	-0.102441594
69	0x3e265681	0.16243936
70	0xbe792843	-0.24331765
71	0x39b412ad	0.0003434619
72	0x3ea918f6	0.33026856
73	0xbf93fce9	-1.1561557
74	0x3e021fa1	0.12707378
75	0x3d6a5f71	0.057219926
76	0x3d828907	0.06373792
77	0x3f4e9b41	0.8070565
78	0xbf2cab96	-0.6744932
79	0x3e0a6e97	0.13518749
80	0x3e09daae	0.13462326
81	0x3fa5ef9c	1.2963748
82	0x3d4cff84	0.050048366
83	0x3f3e94fa	0.7444607
84	0x3ca66422	0.020311419
85	0x3e30c6f2	0.17263392
86	0xbdeba4e6	-0.11506061
87	0x3d0a1bf5	0.03371807
88	0x3dee81d0	0.116458535
89	0xbe28ca65	-0.16483457
90	0x3e6877c4	0.22701937
91	0x3bbe7272	0.005811983
92	0x3dec224c	0.11529979
93	0xbe96acc6	-0.2942869
94	0xbf1ad8be	-0.6048697
95	0xbea7d352	-0.32778412
96	0x3ed12cdb	0.40854535
97	0x3dbd285c	0.092362136
98	0xbee06b5d	-0.43831912
99	0x3e825d04	0.2546159
100	0x3e1f508c	0.1555807
101	0x3e53f81f	0.2070012
102	0x3dd1483a	0.10218854
103	0x3e511d63	0.20421366
104	0x3e599219	0.21247138
105	0x3f585263	0.8450071
106	0x3f816d63	1.0111507
107	0x3e6f4802	0.23367313
108	0x3e06957b	0.1314296
109	0x3e9b063b	0.3027819
110	0x3f08c208	0.5342107
111	0x3f0a09ce	0.5392121
112	0xbda75228	-0.08169967
113	0xbe9b0290	-0.30275393
114	0xbec097d1	-0.37615827
115	0x3f3bf43f	0.73419565
116	0x3f36f64c	0.7146957
117	0x3f30cca7	0.69062275
118	0x3ea26608	0.3171847
119	0xbdf4ae26	-0.11947279
120	0x3f11d5dd	0.56966954
121	0x3e001af3	0.1251028
122	0x3e229dc9	0.15880503
123	0x3bf52bd7	0.0074820328
124	0x3e3a2ad6	0.18180403
125	0x3ec399a5	0.3820316
126	0x3f53e31f	0.82768434
127	0x3e91e0bc	0.2849177
128	0x3dddcbe2	0.10829903
129	0x3e84fb6d	0.25973073
130	0x3e9dbf0d	0.30809823
131	0xbda5d00f	-0.08096325
132	0x3dd09456	0.10184543
133	0xbcb1312a	-0.021629889
134	0x3f04387b	0.5164868
135	0xbe3b7ca8	-0.18309271
136	0x3e4f1bda	0.20225468
137	0xbcac4fb5	-0.021034101
138	0x3e39dd11	0.18150736
139	0x3e26bca1	0.16282894
140	0xbe34d666	-0.17659912
141	0x3e87966f	0.2648196
142	0x3e2a009d	0.16601796
143	0x3ee054ad	0.43814602
144	0xbea6a663	-0.32548818
145	0x3ea725f1	0.32646134
146	0x3d83154c	0.064005464
147	0xbfc1d21c	-1.5142245
148	0x3eedfa9a	0.46480256
149	0x3d8b2745	0.067945994
150	0xbe51ab7b	-0.20475571
151	0x3e9b3f6d	0.30321828
152	0x3ed6a3c0	0.41921806
153	0xbfbd64aa	-1.4796345
154	0x3e97b3e2	0.29629427
155	0x3d410c5d	0.04713093
156	0x3e2b9b90	0.16758561
157	0x3f7affd5	0.9804662
158	0xbf5d64f3	-0.8648216
159	0x3eda8ef2	0.42687184
160	0x3ed34ad2	0.4126802
161	0xbef81a0a	-0.48457366
162	0x3e867828	0.26263547
163	0x3e996445	0.29959312
164	0x3dacbf84	0.08434966
165	0x3f356357	0.70854706
166	0x3eb7704a	0.35827857
167	0x3e2ebf58	0.1706518
168	0xbfd2b392	-1.646105
169	0x3da783fa	0.081794694
170	0x3ebe37b8	0.37151885
171	0x3eb1d0be	0.3472957
172	0xbd2eea50	-0.042703927
173	0x3e9095b9	0.2823923
174	0x3f2fbd76	0.6864847
175	0x3fc1ac0e	1.5130632
176	0xbe70601f	-0.23474167
177	0x3e8e6ba4	0.27816498
178	0x3e16edf0	0.14739203
179	0x3e9a18af	0.30096957
180	0x3ec72e1b	0.38902363
181	0x3f0f1252	0.5588733
182	0x3dd555c9	0.10416753
183	0x3ed2a190	0.41138887
184	0x3e1aa8a0	0.15103388
185	0x3dc956c2	0.09831001
186	0x3f9b0e9e	1.2113836
187	0xbfb0a383	-1.37999
188	0x3e04c02e	0.12963936
189	0xbebb84bf	-0.36624715
190	0x3da87689	0.08225734
191	0x3e4c0128	0.19922316
192	0x3e5544a0	0.2082696
193	0x3efe706e	0.49695152
194	0x3f0fe1ab	0.56203717
195	0x3e4cf6fd	0.20016094
196	0xbe0a9f86	-0.13537416
197	0x3df331b2	0.11874713
198	0xbf23fac0	-0.6405449
199	0x3dac2928	0.084062874
200	0x3ead9c22	0.33908182
201	0xbf720da5	-0.9455207
202	0x3eece38d	0.46267357
203	0x3e5715de	0.21004435
204	0x3ec3a305	0.38210312
205	0x3f7a9d1d	0.97895986
206	0xbf3d8154	-0.74025464
207	0x3d2c9474	0.042133763
208	0x3ea57bf3	0.32321128
209	0x3f8a0549	1.0782863
210	0x3e99cc77	0.30038807
211	0x3f5426c5	0.8287166
212	0x3d3fddaf	0.046842273
213	0x3e78f716	0.24313006
214	0xbca6de68	-0.020369723
215	0x3eed58db	0.46356854
216	0xbd42a397	-0.047519293
217	0xbd707e5a	-0.05871425
218	0x3e4eb54f	0.20186351
219	0x3e129b33	0.14317016
220	0x3e22bb82	0.15891841
221	0xbe32e2f6	-0.17469391
222	0xbf173aca	-0.5907408
223	0xbf1801b3	-0.5937759
224	0x3edf2c42	0.43588454
225	0x3de0942f	0.10965764
226	0xbec248e1	-0.37946227
227	0x3eb94309	0.36183956
228	0x3e923d88	0.2856257
229	0x3eaa271d	0.33232966
230	0x3e7c41ae	0.2463443
231	0x3ec7d93f	0.39032933
232	0x3edbf803	0.42962655
233	0x3f504bdd	0.8136576
234	0x3f8d4c2a	1.1038868
235	0x3e337ae8	0.17527354
236	0x3e481a26	0.19541225
237	0x3e785cb1	0.24254109
238	0x3f3d7891	0.74012095
239	0x3e9acb5d	0.3023328
240	0xbdf09eb3	-0.117490195
241	0xbeeaa2b9	-0.45827273
242	0xbe822b9a	-0.2542389
243	0x3f53a512	0.8267375
244	0x3f53cf0b	0.827378
245	0x3f4544dc	0.77058196
246	0x3e93b3bd	0.28848067
247	0xbcd3f194	-0.02587203
248	0x3efc8fd4	0.49328482
249	0xbdb63f46	-0.08898787
250	0x3e29e731	0.16592099
251	0x3d84699e	0.064654574
252	0x3e4ad52c	0.19807881
253	0x3ee065ad	0.43827572
254	0x3f8bd6f6	1.0924976
255	0x3ead925f	0.33900735

net.2.bias f4 [64]
0	0x3c5b7996	0.013395688
1	0xbd946765	-0.072462834
2	0x3c955194	0.018227376
3	0x3e2a67e4	0.16641194
4	0xbcb6f8f2	-0.022335503
5	0x3ddb0cab	0.106957756
6	0x3d9abbe6	0.0755537
7	0xbd17ef20	-0.03709328
8	0xbcf54f05	-0.029944906
9	0x3f195654	0.5989735
10	0x3e010212	0.12598446
11	0x3e0be948	0.13663208
12	0xbc6b2e5f	-0.014354317
13	0xbe3b01ed	-0.18262453
14	0xbe0525d7	-0.13002716
15	0x3d24eae9	0.04026309
16	0xbdadc411	-0.08484662
17	0xbdecaf50	-0.11556876
18	0x3daff337	0.085913114
19	0xbe2ecbbd	-0.17069907
20	0xbcf71b41	-0.030164363
21	0x3c36167c	0.011113759
22	0xbdc2f17f	-0.09518718
23	0xbb424ec6	-0.0029649003
24	0x3f08eda8	0.53487635
25	0xbbf787b0	-0.007554017
26	0x3caf71ab	0.021416506
27	0x3f72e739	0.9488407
28	0x3d7a8122	0.061158307
29	0x3d8d6ff3	0.06906118
30	0xbd868c15	-0.06569687
31	0xbe622e12	-0.22087887
32	0x3d82a128	0.06378394
33	0xbd92bfd4	-0.071654946
34	0x3f09152d	0.53547937
35	0x3f21bc16	0.6317762
36	0xbda3126a	-0.079624966
37	0x3f4f8f36	0.810779
38	0xbd6c5fed	-0.05770867
39	0x3eeebeda	0.46629983
40	0x3eada55b	0.3391522
41	0x3c4a2d9d	0.012339977
42	0x3d2d4f0b	0.04231171
43	0xbb816cec	-0.003949752
44	0xbe017650	-0.12642789
45	0xbd60045e	-0.054691665
46	0xbd07e736	-0.033179484
47	0xbda5b865	-0.08091811
48	0x3f16f455	0.5896657
49	0xbd8bbaa3	-0.068227075
50	0xbdc0bd8f	-0.094111554
51	0x3e990c47	0.2989218
52	0xbe890f87	-0.2676966
53	0x3f09d3ad	0.53838617
54	0xbda6ea09	-0.081501074
55	0x3d4d8da8	0.050183922
56	0xbd9a3229	-0.075290985
57	0xbd0d3d20	-0.03448212
58	0x3d908f7f	0.0705862
59	0x3c379eed	0.011207324
60	0xbd7bd140	-0.061478853
61	0xbb0703c0	-0.00206016
62	0xbd6c0d69	-0.057629976
63	0xbd739dfc	-0.059476838

net.4.weight f4 [4, 64]
0	0xbe8dda75	-0.27705732
1	0xbee9eb3b	-0.4568728
2	0xbefcccaa	-0.49374896
3	0x3f9479cb	1.1599668
4	0x3cef97a2	0.029247109
5	0xbf885c28	-1.0653124
6	0xbefa2d1c	-0.4886254
7	0xbe844f0b	-0.25841555
8	0xbeca8a41	-0.39558604
9	0x3fc89f8c	1.567369
10	0xbe6e1b87	-0.23252688
11	0xbf12ffdd	-0.57421666
12	0xbeb7a6c7	-0.3586943
13	0xbf80ecf1	-1.0072309
14	0xbea5bd99	-0.32371214
15	0xbe82f891	-0.25580266
16	0xbfa3d1d3	-1.2798408
17	0x3f520f01	0.82054144
18	0xbe5f5055	-0.21807988
19	0xbf922a95	-1.1419245
20	0x3f080649	0.5313459
21	0x3dbfb462	0.09360577
22	0xbf498d8b	-0.787316
23	0xbe9cd3c4	-0.30630314
24	0x3ee0f4fc	0.43936908
25	0xbedc6722	-0.43047434
26	0xbe78b622	-0.24288228
27	0x3fb8058e	1.4376695
28	0xbefc752b	-0.49308142
29	0xbf06ac1c	-0.5260637
30	0xbfb7cfff	-1.436035
31	0xbf8170cb	-1.0112547
32	0xbee3a884	-0.44464505
33	0xbf04bd03	-0.5185091
34	0xbdc1c729	-0.09461815
35	0x3fd2b209	1.6460582
36	0xbea0ca80	-0.31404495
37	0x3fc5e8c7	1.5461663
38	0x3d81f1ce	0.06344949
39	0x3f965ff9	1.1748039
40	0x3f904f3d	1.1274182
41	0xbecf7d4d	-0.40525284
42	0xbdf58a12	-0.119892254
43	0xbeb9c220	-0.36280918
44	0x3b886bdd	0.004163249
45	0xbf86e838	-1.0539618
46	0xbeea78c4	-0.45795262
47	0xbeeda34d	-0.4641365
48	0x3fadca75	1.357741
49	0xbecdaedf	-0.4017248
50	0xbf834808	-1.0256357
51	0x3e1a0283	0.1504002
52	0xbf8c54a3	-1.0963329
53	0x3fd3a9b3	1.6536163
54	0xbe5b8dd6	-0.21440825
55	0xbea55838	-0.32293868
56	0xbea09290	-0.31361818
57	0x3d87d958	0.06633252
58	0x3fafa738	1.3722906
59	0xbec64007	-0.38720724
60	0xbf82906d	-1.0200325
61	0xbc8efdda	-0.01745503
62	0xbef19075	-0.47180524
63	0x3dd30d54	0.103052765
64	0xbe80bf44	-0.25145924
65	0xbed8524c	-0.42250288
66	0xbf1563f0	-0.5835562
67	0x3f211b6e	0.6293248
68	0xbd23961e	-0.039938085
69	0xbf396a9a	-0.72428286
70	0xbf0b207e	-0.54346454
71	0xbefdb630	-0.4955306
72	0xbe8dda1a	-0.2770546
73	0x3fd0e6c7	1.6320428
74	0xbe8142b2	-0.25246197
75	0xbe916189	-0.28394726
76	0xbf07958e	-0.5296258
77	0xbfc32d90	-1.524828
78	0xbef7e018	-0.48413157
79	0xbf049740	-0.5179329
80	0xbf4d3535	-0.8015931
81	0x3f40f6aa	0.7537638
82	0xbeb5a3bb	-0.3547648
83	0xbf7a9fa8	-0.97899866
84	0x3e516305	0.20447929
85	0xbde666d4	-0.11250082
86	0xbfa97782	-1.3239596
87	0xbe887f2c	-0.26659524
88	0x3f4528cd	0.7701538
89	0xbf18a7a2	-0.5963079
90	0xbeff37a8	-0.4984715
91	0x3fc30b74	1.523787
92	0xbe53975f	-0.20663212
93	0xbf2c2292	-0.6724025
94	0xbfa209e6	-1.2659271
95	0xbf841133	-1.0317749
96	0xbe94a2ba	-0.290304
97	0xbf0581d5	-0.5215123
98	0x3e76f62d	0.24117346
99	0x3fc4d839	1.5378486
100	0xbe5f19ff	-0.2178726
101	0x3fbbd13b	1.4673227
102	0xbdbecdf8	-0.09316629
103	0x3fa23336	1.2671878
104	0x3f8260f9	1.0185844
105	0xbf04ce16	-0.5187696
106	0xbf1b19e3	-0.60586375
107	0xbed72900	-0.42023468
108	0x3f079dfe	0.5297545
109	0xbf90de71	-1.1317884
110	0xbe8772ac	-0.26454675
111	0xbea69328	-0.32534146
112	0x3fbc4e5c	1.4711413
113	0xbe646d29	-0.22307266
114	0xbf56aa07	-0.8385319
115	0xbe8e943a	-0.27847463
116	0xbf8963c8	-1.0733576
117	0x3fd7e9aa	1.6868184
118	0xbe95187a	-0.29120237
119	0xbeb2923e	-0.348772
120	0x3f808e04	1.004334
121	0xbd22f5c3	-0.039785158
122	0x3fc16844	1.5109944
123	0xbed67fca	-0.4189437
124	0xbf810aac	-1.0081382
125	0x3e412722	0.18862584
126	0xbf13f74f	-0.5779924
127	0xbadc7c77	-0.0016821761
128	0xbf102e5c	-0.5632074
129	0xbea8e47b	-0.32986817
130	0xbec0f8df	-0.37689874
131	0x3f36bf54	0.71385694
132	0xbde9bf94	-0.11413494
133	0xbf01402a	-0.5048853
134	0xbdf16581	-0.117869385
135	0xbec1c259	-0.37843588
136	0xbed0cd85	-0.407818
137	0x3f9f0c8a	1.2425702
138	0x3ec2126d	0.37904683
139	0xbe911f7f	-0.28344342
140	0xbea3c650	-0.31987238
141	0xbfc8ce82	-1.5688021
142	0xbee0989b	-0.4386643
143	0xbec492a1	-0.3839312
144	0xbfab20f5	-1.3369433
145	0xbfb35b57	-1.401225
146	0xbe7103cc	-0.23536605
147	0xbf9e0ec2	-1.2348254
148	0x3f8c7738	1.0973883
149	0xbb441332	-0.0029918668
150	0xbfdc90f1	-1.7231733
151	0xbf21a8fe	-0.63148487
152	0x3f25c9c1	0.6476098
153	0x3d86b9b6	0.0657839
154	0x3e302cf9	0.17204656
155	0x3fd683ec	1.6759009
156	0xbed2fae1	-0.4120703
157	0xbef6acc0	-0.48178673
158	0xbf925f10	-1.1435261
159	0xbfe52365	-1.7901427
160	0xbe9b5028	-0.30334592
161	0xbf186673	-0.59531325
162	0xbf9396cc	-1.1530395
163	0x3fc327ad	1.5246483
164	0xbee1c487	-0.4409525
165	0x400dec1a	2.2175355
166	0x3d5cf9a6	0.05394902
167	0x3f56a7c7	0.8384976
168	0x3f8b3a05	1.0877081
169	0xbefaeeb6	-0.49010247
170	0xbdaf95eb	-0.085735165
171	0xbeffcabd	-0.49959365
172	0x3e872b0f	0.2640004
173	0xbf9f730a	-1.2456982
174	0xbefa24b1	-0.48856118
175	0xbed29171	-0.41126588
176	0x3fe6ca03	1.8030399
177	0xbeff49e2	-0.49861056
178	0xbfa926f5	-1.3215014
179	0xbf56223b	-0.8364598
180	0xbf2586a8	-0.64658594
181	0x3ff4c507	1.9122628
182	0xbecd51b2	-0.4010139
183	0xbe1edbe6	-0.15513572
184	0x3f468ad0	0.7755556
185	0x3d758284	0.059938923
186	0x3f9fb113	1.2475914
187	0xbea143fc	-0.3149718
188	0xbfc79292	-1.5591605
189	0xbf7d44f3	-0.98933333
190	0xbed0f22a	-0.40809757
191	0x3bad8240	0.005295068
192	0xbef04e35	-0.46934667
193	0xbed9a2e7	-0.42507097
194	0xbe438485	-0.19093521
195	0x3fd20aab	1.6409506
196	0x3d41640d	0.047214556
197	0xbf96c753	-1.1779579
198	0xbec0fc60	-0.37692547
199	0xbecd7842	-0.40130812
200	0xbf132b79	-0.5748821
201	0x3fc81d8f	1.563402
202	0xbe875813	-0.26434383
203	0xbf1a92c4	-0.60380197
204	0xbedbabdf	-0.42904565
205	0xbe9d36b2	-0.30705792
206	0xbe9f4e10	-0.31114244
207	0xbefe766d	-0.49699727
208	0xbf8b8fa3	-1.090321
209	0x3f9c6820	1.2219276
210	0xbf0eb7d9	-0.5574928
211	0xbf449ab2	-0.76798546
212	0x3ec6b62e	0.38810867
213	0xbda1f94d	-0.079088785
214	0xbf071bfc	-0.52777076
215	0xbee98abb	-0.45613655
216	0x3f0ae492	0.5425502
217	0xbd9a277b	-0.075270616
218	0xbe3f625c	-0.18689865
219	0x3fa9fb8c	1.3279891
220	0xbf091629	-0.5354944
221	0xbe1441bd	-0.14478202
222	0xbfa8e642	-1.3195269
223	0xbf0c8556	-0.54890954
224	0xbf0960c6	-0.5366329
225	0xbe414bc2	-0.18876556
226	0xbed17cd2	-0.40915543
227	0x3fd49301	1.6607362
228	0xbeff7705	-0.49895492
229	0x3fda9d00	1.7079163
230	0x3d62b19d	0.055345166
231	0x3f8aaf6d	1.0834786
232	0x3f98368b	1.1891645
233	0xbe79f7cf	-0.24410938
234	0xbe0ae392	-0.13563374
235	0xbead6c82	-0.33871847
236	0xbf0d9ef2	-0.55320656
237	0xbf700ca1	-0.9376927
238	0xbef72bf9	-0.48275736
239	0xbf04e378	-0.5190959
240	0x3faeac79	1.3646384
241	0xbf0226fc	-0.50840735
242	0xbf9bbf98	-1.2167845
243	0x3f53cf73	0.8273842
244	0xbfc3b200	-1.5288696
245	0x3fdb44fa	1.7130425
246	0xbed356c2	-0.41277128
247	0xbf0fcbcc	-0.56170344
248	0xbe5710b4	-0.21002465
249	0xbd30b6d4	-0.04314311
250	0x3f891d8a	1.071214
251	0xbec40404	-0.38284314
252	0xbe59bcbd	-0.21263404
253	0x3cad36ae	0.021144237
254	0xbe43d1b4	-0.19122964
255	0x3bf31900	0.0074187517

net.4.bias f4 [4]
0	0x3e3d9c57	0.1851667
1	0xbdc9a83c	-0.09846541
2	0x3dfe941d	0.12430594
3	0x3e48230a	0.19544616
